joyverse/backend/model copy/best_model-2.pth (torch, 539042 bytes, 41 tensors)

pos_embedding f4 [1, 468, 64]
0.09922389 -0.014397097 0.51643693 0.26160908 0.07914999 1.4002924 0.57697016 0.60130966
0.555053 0.8848351 -0.12100677 0.83263 -0.25761914 1.4819683 -0.09757133 0.2873263
-0.54573315 -0.9206667 0.0014215242 1.3039035 0.045649182 1.0359089 -0.45350704 1.578775
-0.12575796 -1.1509788 -0.76988125 -2.204825 -0.24520789 0.07142522 1.614205 -0.03136908
-0.019897074 -0.0028380398 0.37525895 -0.69266415 0.28782225 0.09319363 0.14053397 0.4091864
1.2918209 0.063911326 -1.2494519 0.37463215 -0.3348719 -2.010947 -0.93331313 0.53604513
0.40288457 -0.18196392 0.0326336 -0.019043457 -0.043537695 1.3853896 -0.6330477 0.0842416
0.8777264 0.33002886 -0.40314588 -0.055340275 0.112910524 -0.04118803 -0.019940626 -0.11065307
0.110548094 -1.1790987 -0.28523517 0.6935501 -0.86037344 -0.066206254 0.049248423 0.070265844
0.58354694 0.22473016 -0.21963838 0.13252246 -0.14363645 -0.98548967 0.07834749 0.24757566
-0.44383174 -0.71564704 -0.053113952 -0.556046 -0.29261053 -0.74102443 1.6087697 -0.19883981
-0.93387526 0.25990865 0.3119836 -0.0566998 0.048431847 0.7983102 -0.73653066 -1.2197887
-0.2154259 0.17364845 -0.6056832 -0.18547516 1.0449078 -0.0593239 0.29447296 -0.12554015
-0.1302642 -0.4611977 -0.7129368 0.16387829 1.6937131 -0.3062485 -0.092060484 -0.53194964
-0.44622958 0.8595067 0.05195451 -1.9681939 -0.5572853 0.06658223 -0.18252352 -0.19538634
1.4805404 0.8040737 -1.2179817 0.7634253 2.00586 0.12319955 -1.4406481 0.2768752
0.466565 -0.58979774 -1.0696491 0.0092968615 -1.988852 0.10187377 -0.096695386 -0.87388337
-0.08722951 -1.2365736 0.80359286 -0.96771914 -0.05630809 -0.46400273 -0.6375403 0.694205
0.16233923 0.43899363 -0.75714326 1.6815325 -1.0656743 0.9470806 0.79499894 -0.9164153
0.0755141 0.38823584 1.4275844 -0.06626553 0.3844922 -0.96003973 -0.18449153 0.71364725
0.60534585 -0.72227395 -0.28781247 -0.22147082 -0.42861912 0.31380272 1.4061197 0.097160585
-0.489956 -1.1521744 -1.0610895 -0.19113699 1.5585016 0.1805739 -2.4113379 -0.106731616
-0.6991514 -1.5823972 0.78171945 -0.31747624 1.1558651 0.2002135 -0.51680833 0.2896204
0.025932774 -0.17104411 0.07413892 -0.27770364 0.12023708 0.4139932 -0.23364055 0.5154871
0.1367832 -0.30904937 -0.7126088 -2.0743887 0.3814636 -0.15253031 0.7252053 -0.52480674
-0.5589914 0.1455724 0.24826202 1.0584861 0.7655865 0.014493493 0.09647659 0.9524529
0.71669513 0.63244265 0.28838572 -0.30421016 0.39535776 1.046591 -0.020156993 -1.6722281
-0.0027845167 0.056785714 0.67633504 -0.015154182 0.032365777 0.16877739 0.25942126 1.0703073
0.4629461 -1.417781 1.6256477 0.026242508 -0.4372599 -0.69150895 -0.6017622 1.3191458
-1.4860052 0.045802664 1.7426224 -2.1871872 -0.045496807 -0.020296523 0.70683354 -0.45018202
0.66016924 -0.0019363672 0.9615609 -0.9603374 -0.1195174 -0.01888311 0.3713194 1.041642
0.3035695 -1.5244876 0.13490765 -0.11965671 0.041185446 -1.1358345 0.6277338 -0.34410244
00000000: e535 cb3d cde1 6bbc 3635 043f a0f1 853e
00000010: 6419 a23d c83c b33f 51b4 133f 6eef 193f
00000020: f417 0e3f 8e84 623f 66d2 f7bd 3d27 553f
00000030: a8e6 83be 23b1 bd3f 7ad3 c7bd 6f1c 933e
00000040: 2bb5 0bbf d0b0 6bbf 7052 ba3a 4fe6 a63f
00000050: a3fa 3a3d aa98 843f 1332 e8be 4d15 ca3f
00000060: b2c6 00be 4653 93bf f016 45bf da1b 0dc0
00000070: c717 7bbe 6347 923d 459e ce3f dd7c 00bd
00000080: 30ff a2bc 68fe 39bb f121 c03e 7052 31bf
00000090: 705d 933e 4ddc be3d 23e8 0f3e e180 d13e
000000a0: 635a a53f f1e3 823d 0aee 9fbf c9cf bf3e
000000b0: 5474 abbe 5bb3 00c0 9ced 6ebf 413a 093f
000000c0: e346 ce3e c054 3abe cfaa 053d 0601 9cbc
000000d0: 9554 32bd 7254 b13f 6a0f 22bf dc86 ac3d
000000e0: adb2 603f 8bf9 a83e 2369 cebe 7cac 62bd
000000f0: a23d e73d c8b4 28bd 865a a3bc 149e e2bd
00000100: 0a67 e23d b5ec 96bf 580a 92be 808c 313f
00000110: 6f41 5cbf 2597 87bd b7b8 493d 8ae7 8f3d
00000120: 5563 153f aa1f 663e e2e8 60be f8b3 073e
00000130: 6f15 13be 0d49 7cbf a674 a03d 7984 7d3e
00000140: ea3d e3be a534 37bf 048e 59bd 0859 0ebf
00000150: 0cd1 95be c7b3 3dbf 2aec cd3f aa9c 4bbe
00000160: 7312 6fbf bf12 853e 50bc 9f3e 0d3e 68bd
00000170: 7960 463d 0f5e 4c3f 468d 3cbf 0922 9cbf
00000180: 9b98 5cbe e6d0 313e 0e0e 1bbf 33ed 3dbe
00000190: 8abf 853f 9efd 72bd 29c5 963e 998d 00be
000001a0: fa63 05be 1b22 ecbe 0783 36bf b6cf 273e
000001b0: 97cb d83f 9acc 9cbe 358a bcbd da2d 08bf
000001c0: 3478 e4be a208 5c3f 41ce 543d c7ed fbbf
000001d0: 40aa 0ebf 445c 883d 72e7 3abe 5b13 48be
000001e0: 5982 bd3f c6d7 4d3f d3e6 9bbf d76f 433f
000001f0: 0360 0040 0c50 fc3d 2867 b8bf 96c2 8d3e
00000200: 9ce1 ee3e fcfc 16bf 43ea 88bf dd51 183c
00000210: b492 febf 32a3 d03d 3b08 c6bd d2b6 5fbf
00000220: 63a5 b2bd 0b48 9ebf 43b8 4d3f 71bc 77bf
00000230: 50a3 66bd c491 edbe d735 23bf 6bb7 313f
00000240: 413c 263e c6c3 e03e 24d4 41bf 753c d73f
00000250: 0468 88bf e073 723f 0d85 4b3f 319a 6abf
00000260: 23a7 9a3d d9c6 c63e 16bb b63f 39b6 87bd
00000270: 29dc c43e 2ac5 75bf 59eb 3cbe 96b1 363f
00000280: f2f7 1a3f f2e6 38bf 285c 93be 3fc9 62be
00000290: f773 dbbe c0aa a03e bbfb b33f 21fc c63d
000002a0: 83db fabe 737a 93bf c8d1 87bf 6ab9 43be
000002b0: fb7c c73f 5de8 383e 5c53 1ac0 1b96 dabd
000002c0: 96fb 32bf fe8b cabf c41e 483f 3f8c a2be
000002d0: 63f3 933f c504 4d3e 8d4d 04bf 2049 943e
000002e0: f870 d43c 3026 2fbe 25d6 973d 2c2f 8ebe
000002f0: dc3e f63d ebf6 d33e 783f 6fbe f6f6 033f
00000300: e510 0c3e b83b 9ebe 886d 36bf c9c2 04c0
00000310: 324f c33e e830 1cbe 0ea7 393f bc59 06bf
00000320: 0f1a 0fbf ee10 153e 6638 7e3e 797c 873f
00000330: 7afd 433f 1e76 6d3c 8595 c53d f4d3 733f
00000340: 5579 373f c3e7 213f 4ba7 933e 6fc1 9bbe
00000350: 556c ca3e b2f6 853f 4720 a5bc 920b d6bf
00000360: 707c 36bb 2398 683d 4b24 2d3f 3f49 78bc
00000370: fa91 043d fbd3 2c3e ddd2 843e d4ff 883f
00000380: 4507 ed3e d979 b5bf 3915 d03f 87fa d63c
00000390: 88e0 dfbe bb06 31bf 160d 1abf c5d9 a83f
000003a0: 6b35 bebf 939b 3b3d 400e df3f e0fa 0bc0
000003b0: dc5a 3abd e544 a6bc 0bf3 343f 427e e6be
000003c0: da00 293f b4cd fdba db28 763f acd8 75bf
000003d0: 8ac5 f4bd c0b0 9abc 941d be3e 8654 853f
000003e0: 766d 9b3e 6922 c3bf 3b25 0a3e 940e f5bd
000003f0: 12b2 283d 0663 91bf 2ab3 203f 322e b0be

embedding.weight f4 [64, 3]
-0.19377047 0.10434381 0.021179305 -0.11007533 -0.06875876 0.13411126 -0.07233451 0.53774345
0.32419932 -0.074821234 -0.25294375 -0.13217662 -0.2285814 0.14514035 0.2596399 -0.55958927
-0.05679899 -0.22500819 -0.231519 -0.02517733 -0.01842013 0.5548471 -0.39576954 0.026237903
0.22863503 0.5430515 -0.012452108 -0.4266739 0.44533896 -0.13517253 -0.49534127 -0.27958488
0.13113518 -0.48677713 -0.5111023 0.08919078 -0.2720535 -0.20117955 0.28455222 0.49744213
0.16216306 0.29747903 0.48091763 0.0145000955 0.038803462 -0.16517647 0.098078586 -0.003266089
-0.0043850355 0.3029632 -0.05243049 0.28994972 0.16547601 -0.14740334 0.5330031 0.48873147
-0.14641398 0.22566096 0.23903157 0.048534602 -0.32226792 -0.041817296 0.1749182 0.23595786
0.4963629 0.055945497 0.14617817 -0.024007516 0.20447077 0.29684 0.33077165 0.033409823
0.5545542 0.40291324 -0.061424937 0.0926513 -0.30055252 0.12197673 -0.45374426 -0.34222788
0.020894881 0.07694301 -0.318528 0.24869275 -0.09314165 0.24914503 -0.03650526 -0.106305346
-0.5161892 -0.19879644 -0.4950613 0.4983894 -0.2185655 -0.32185605 0.25989226 0.20623106
0.28066245 0.17326309 -0.17410056 -0.19261439 0.026840279 0.29244882 0.09815267 0.3969225
-0.19108628 0.30352774 -0.5133731 -0.25239486 -0.19234778 -0.10132035 -0.22311676 -0.36294964
0.032526534 -0.048435673 0.46371248 0.41535443 -0.3160523 -0.5368353 0.19293317 0.05918184
0.14901072 0.1574999 0.09459333 -0.33081692 -0.32643872 -0.015153473 0.09459533 -0.5309597
0.16146237 -0.55984247 0.33134025 -0.059419435 -0.111693576 -0.53092605 -0.32334343 0.061467804
0.24712345 0.23227401 -0.23472552 0.067903094 0.036983144 0.01957956 -0.5267591 -0.010517067
0.28146204 -0.16302617 -0.054201365 -0.011033338 0.29472432 0.16046955 -0.20084837 0.49961904
0.08009942 0.008282358 -0.19567393 0.18519187 0.019297553 -0.49951345 -0.3281355 0.39937478
-0.036669508 0.12462974 -0.37344012 -0.05539566 0.14295648 -0.08237008 -0.34400237 -0.041565225
0.23689607 0.39327258 0.118774965 -0.49609435 -0.11256407 0.1257681 -0.1621329 -0.15621012
-0.1898055 -0.35148013 -0.2833244 -0.251818 0.36387038 0.07695087 0.18264936 0.023948487
-0.21117046 -0.0028393865 0.3067166 0.20178452 -0.11636583 -0.42696705 -0.19753584 0.24282208
00000000: c46b 46be 35b2 d53d 3980 ad3c 2d6f e1bd
00000010: 65d1 8cbd 7654 093e 1e24 94bd 8ea9 093f
00000020: 74fd a53e e03b 99bd d881 81be 4f59 07be
00000030: 3e11 6abe ac9f 143e 85ef 843e 3e41 0fbf
00000040: 0fa6 68bd 8c68 66be 5113 6dbe b040 cebc
00000050: d0e5 96bc 760a 0e3f 4ea2 cabe dff0 d63c
00000060: 4d1f 6a3e 6c05 0b3f ed03 4cbc 0075 dabe
00000070: 7803 e43e ab6a 0abe 5f9d fdbe c025 8fbe
00000080: 4d48 063e da3a f9be 9ad7 02bf a8a9 b63d
00000090: 994a 8bbe 0302 4ebe d4b0 913e bcb0 fe3e
000000a0: 130e 263e 2c4f 983e d63a f63e cf91 6d3c
000000b0: 61f0 1e3d 0524 29be 6ddd c83d e10b 56bb
000000c0: 58b0 8fbb fe1d 9b3e 5ac1 56bd 4a74 943e
000000d0: 8b72 293e e7f0 16be e472 083f 033b fa3e
000000e0: 8ced 15be ab13 673e b1c4 743e 38cc 463d
000000f0: 4d00 a5be 9d48 2bbd c21d 333e f09e 713e
00000100: 4723 fe3e 1b27 653d bbaf 153e 69ab c4bc
00000110: c960 513e 6afb 973e e75a a93e bdd8 083d
00000120: 44f7 0d3f a54a ce3e b798 7bbd f7bf bd3d
00000130: 05e2 99be f0ce f93d 2b51 e8be 7e38 afbe
00000140: be2b ab3c 4c94 9d3d 1a16 a3be 50a9 7e3e
00000150: 0dc1 bebd e01f 7f3e 8a86 15bd 9eb6 d9bd
00000160: fa24 04bf 4b91 4bbe ad78 fdbe e52c ff3e
00000170: a2cf 5fbe 51ca a4be 9910 853e 3c2e 533e
00000180: fdb2 8f3e e16b 313e 6b47 32be b53c 45be
00000190: 25e0 db3c dabb 953e 4404 c93d 6d39 cb3e
000001a0: 1fac 43be fd67 9b3e 6b6c 03bf e639 81be
000001b0: d1f6 44be 0b81 cfbd b878 64be 89d4 b9be
000001c0: 8b3a 053d 7c64 46bd b96b ed3e 56a9 d43e
000001d0: 9bd1 a1be 0a6e 09bf 4690 453e a868 723d
000001e0: 4496 183e a747 213e 26ba c13d d660 a9be
000001f0: fa22 a7be 4646 78bc 32bb c13d faec 07bf
00000200: 6456 253e d651 0fbf 6ea5 a93e cb61 73bd
00000210: 9abf e4bd c5ea 07bf 458d a5be aac5 7b3d
00000220: ee0d 7d3e 3dd9 6d3e e35b 70be c710 8b3d
00000230: a37b 173d 5065 a03c afd9 06bf c74f 2cbc
00000240: cb1b 903e 55f0 26be 4002 5ebd 2cc5 34bc
00000250: 1be6 963e 2152 243e 32ab 4dbe 11ce ff3e
00000260: 2a0b a43d bab2 073c bf5e 48be f0a2 3d3e
00000270: e715 9e3c 3ac0 ffbe 6001 a8be da7a cc3e
00000280: c432 16bd e13d ff3d 8b33 bfbe 8fe6 62bd
00000290: 2f63 123e a5b1 a8bd 1421 b0be 4c40 2abd
000002a0: e294 723e 065b c93e 4a40 f33d 1400 febe
000002b0: fe87 e6bd 5ac9 003e 2b06 26be 8cf5 1fbe
000002c0: 5f5c 42be 34f5 b3be e50f 91be 4aee 80be
000002d0: 384d ba3e 6b98 9d3d 6f08 3b3e 9e2f c43c
000002e0: 123d 58be 0015 3abb f509 9d3e 9aa0 4e3e
000002f0: 3551 eebd 6d9b dabe d646 4abe 5aa6 783e

embedding.bias f4 [64]
-0.5131531 0.33922592 0.10692498 -0.23506616 0.25030258 0.32822493 -0.5049699 0.23667382
0.20209256 -0.28576508 -0.3861003 0.053306732 -0.19833583 -0.33277047 0.46737343 -0.35889748
0.3936233 -0.36777806 0.041585214 -0.18026522 0.34763354 -0.024266014 0.03285264 -0.30285183
-0.48442256 0.1954 0.44994715 0.53782433 -0.21375132 -0.3431908 0.32688862 0.047644556
0.0099562835 0.21662976 -0.07978628 -0.32697582 -0.2829827 0.025420291 -0.3472226 0.43328825
-0.2135963 -0.16412382 0.20593815 -0.40970835 -0.5032094 -0.3983091 0.1488155 0.5517489
-0.14292271 -0.39430296 -0.04848274 0.04498726 0.088877864 0.45170406 0.21266475 -0.07241269
-0.34694925 -0.39731652 -0.1314976 0.26385325 0.32512578 -0.20805736 -0.25007945 0.40884823
00000000: 005e 03bf 05af ad3e 7cfb da3d 2fb5 70be
00000010: a927 803e 190d a83e b545 01bf 9f5a 723e
00000020: 5af1 4e3e cd4f 92be f0ae c5be 2958 5a3d
00000030: 8c18 4bbe e460 aabe 924b ef3e 69c1 b7be
00000040: fe88 c93e 684d bcbe 4255 2a3d 7297 38be
00000050: 06fd b13e 85c9 c6bc 7d90 063d 650f 9bbe
00000060: 3c06 f8be f016 483e 795f e63e dbae 093f
00000070: a0e1 5abe b4b6 afbe f25d a73e f026 433d
00000080: ae1f 233c 31d4 5d3e fd66 a3bd 6069 a7be
00000090: 1ce3 90be 373e d03c 29c7 b1be f5d7 dd3e
000000a0: fdb8 5abe 1310 28be 73e1 523e 4bc5 d1be
000000b0: 55d2 00bf 2cef cbbe 1763 183e 6a3f 0d3f
000000c0: 555a 12be 14e2 c9be d695 46bd 9044 383d
000000d0: 9905 b63d c145 e73e cac4 593e 1b4d 94bd
000000e0: 55a3 b1be 126d cbbe 4fa7 06be c617 873e
000000f0: e376 a63e fd0c 55be 6a0a 80be 8e54 d13e

transformer.layers.0.self_attn.in_proj_weight f4 [192, 64]
0.07191252 -0.055325214 0.016770951 -0.0316003 -0.045639794 -0.015840398 0.037545446 0.017104434
0.11675021 0.07034739 -0.103762634 0.10774323 0.10578636 0.012613988 0.036431298 -0.0035029058
0.03982104 -0.006121331 0.094259955 0.04226014 -0.044471376 -0.033164106 0.042182893 -0.021017365
-0.022865063 0.018997477 0.027433673 0.09612627 -0.05059057 -0.046202578 -0.017087959 0.0054935566
0.07036266 -0.052291267 -0.042476192 0.05929165 0.037825044 -0.041171387 0.028826285 0.050143067
-0.017110674 0.017967416 -0.041511804 0.020206116 -0.05059781 -0.077435665 0.0053655147 0.018624587
0.039064623 -0.08135411 -0.060920972 0.029110594 0.028389864 0.102603346 -0.017338311 -0.011662778
-0.0012910317 0.10664298 0.03322535 0.005682292 -0.08739057 0.06342268 0.022426385 0.020305559
-0.050047744 0.042824168 -0.075034246 -0.08247474 0.04095794 -0.0037491894 0.040961716 0.07849384
0.08162949 0.09725727 -0.110584654 -0.11512512 -0.023252472 -0.002396152 -0.05199021 0.113984995
0.04109642 0.007335642 0.12732637 -0.020861968 0.04542912 0.11837173 -0.035149243 0.03758073
-0.0043206853 -0.035331458 -0.02059145 0.05185736 0.0056337905 0.080752686 -0.002054074 0.01624205
-0.04581143 0.06753169 0.015391667 0.05475204 0.064480394 0.02265632 0.07424981 0.029856844
0.05302549 -0.026483301 -0.03087298 0.091360845 0.053633217 0.100816466 -0.03892193 0.09545569
-0.04249483 0.034145728 0.0920889 0.07448377 -0.07561444 0.029670542 -0.022969581 0.06992649
-0.017559767 0.11903798 0.039297048 0.004338529 0.045144267 0.085994944 0.0022338412 -0.0071827006
-0.10980203 -0.10681826 0.01620121 -0.094992146 -0.118821554 -0.044639584 0.058698837 -0.11914204
0.03499136 0.045427103 -0.07534981 0.10249377 -0.07935759 0.047969602 0.010658675 -0.05852974
-0.05809717 0.008257579 -0.12304613 -0.030748565 0.050832637 0.016924959 -0.038544357 -0.009186823
0.0138349505 -0.06517612 -0.065325044 0.0062585147 0.01047411 -0.12287647 -0.048682246 -0.026033023
-0.09941503 0.033178028 0.06983071 -0.09434814 0.031787284 -0.09704958 0.03244235 0.093481995
0.0030422532 -0.000532011 0.08772715 0.01916648 0.05048457 -0.087680124 0.013905623 -0.073927425
0.05162533 0.010812771 0.0069973907 0.07954558 0.067990996 -0.010189062 0.05969955 0.12624653
-0.020410521 0.04652838 -0.050712984 0.027313953 -0.05768762 0.0021214208 -0.04164552 0.039298948
0.1254672 -0.042324964 -0.083452545 0.006607695 0.06847861 -0.032424062 -0.055961587 -0.037965097
0.07130273 0.057591032 -0.1034918 0.061244033 0.034746792 -0.022735903 -0.006832022 -0.00064205594
-0.129287 -0.024974234 -0.032330327 -0.061886948 0.07003518 0.052934192 0.026846323 -0.029339945
-0.022427585 0.0032767325 0.020669691 0.11234633 0.10642372 0.049438428 0.0015039473 -0.020187644
-0.020213025 -0.06571793 0.0012881128 0.11388915 0.1010576 0.035197057 -0.037819456 -0.053625517
-0.003477075 0.11676025 -0.020453561 -0.07500739 0.0817422 0.059991196 -0.040700316 0.04679744
0.03545399 -0.04558952 0.00970097 0.015948778 -0.04723032 -0.055239283 -0.010717438 -0.056058086
0.030733757 -0.0025329674 -0.102297015 0.012566108 -0.12278164 0.06846369 0.032050207 -0.03132294
00000000: df46 933d b19c 62bd 3c63 893c 516f 01bd
00000010: cbf0 3abd b9c3 81bc 41c9 193d 991e 8c3c
00000020: bc1a ef3d 4b12 903d 8181 d4bd 7ca8 dc3d
00000030: 85a6 d83d e6aa 4e3c fc38 153d 0291 65bb
00000040: 631b 233d 7295 c8bb 5d0b c13d f818 2d3d
00000050: 9e27 36bd 16d7 07bd f8c7 2c3d 9c2c acbc
00000060: 834f bbbc 99a0 9b3c 95bc e03c dadd c43d
00000070: 0f38 4fbd ea3e 3dbd 0cfc 8bbc 4b03 b43b
00000080: 4c1a 903d 5e2f 56bd 84fb 2dbd cddb 723d
00000090: 6fee 1a3d 54a3 28bd 1a25 ec3c d162 4d3d
000000a0: af2b 8cbc 6730 933c 4808 2abd 4c87 a53c
000000b0: a63f 4fbd 9796 9ebd 33d1 af3b 9792 983c
000000c0: 3a02 203d fc9c a6bd 4588 79bd 5779 ee3c
000000d0: dc91 e83c b421 d23d 1309 8ebc 3d15 3fbc
000000e0: d637 a9ba a267 da3d 4e17 083d 8532 ba3b
000000f0: d4f9 b2bd c0e3 813d 8ab7 b73c d857 a63c
00000100: ddfe 4cbd 6568 2f3d 8eab 99bd 84e8 a8bd
00000110: 83c3 273d f6b4 75bb 79c7 273d 61c1 a03d
00000120: 5d2d a73d d22e c73d 357a e2bd b8c6 ebbd
00000130: f87b bebc c208 1dbb b0f3 54bd f770 e93d
00000140: b854 283d d35f f03b d861 023e b8e6 aabc
00000150: e313 3a3d e16c f23d a7f8 0fbd 40ee 193d
00000160: 8994 8dbb b8b7 10bd 67af a8bc 6268 543d
00000170: a99b b83b aa61 a53d a59d 06bb 0c0e 853c
00000180: c4a4 3bbd 0e4e 8a3d 552d 7c3c ad43 603d
00000190: 4c0e 843d bf99 b93c 4910 983d 5796 f43c
000001a0: 4231 593d 82f3 d8bc 55e9 fcbc 651b bb3d
000001b0: 81ae 5b3d dd78 ce3d 9a6c 1fbd 467e c33d
000001c0: 0f0f 2ebd 64dc 0b3d 1b99 bc3d f28a 983d
000001d0: bedb 9abd a30f f33c b42a bcbc 9f35 8f3d
000001e0: 80d9 8fbc 2fca f33d f1f5 203d 382a 8e3b
000001f0: 32e9 383d 1e1e b03d a365 123b dc5c ebbb
00000200: e3df e0bd 88c3 dabd 66b8 843c 3e8b c2bd
00000210: b758 f3bd ffd7 36bd 316e 703d be00 f4bd
00000220: 1a53 0f3d c511 3a3d 0051 9abd 41e8 d13d
00000230: 3b86 a2bd c67b 443d b9a1 2e3c e1bc 6fbd
00000240: 4cf7 6dbd cc4a 073c 9cff fbbd 6ae4 fbbc
00000250: e235 503d 36a6 8a3c b0e0 1dbd 5484 16bc
00000260: fdab 623c 0f7b 85bd 23c9 85bd 3a14 cd3b
00000270: 9a9b 2b3c a9a6 fbbd 0967 47bd 3543 d5bc
00000280: 1b9a cbbd afe5 073d 6703 8f3d 9939 c1bd
00000290: 6233 023d eec1 c6bd 45e2 043d 7d73 bf3d
000002a0: 8a60 473b a776 0bba 4baa b33d 0603 9d3c
000002b0: e9c8 4e3d a391 b3bd 69d4 633c 4367 97bd
000002c0: 1575 533d 0c28 313c 5e4a e53b cbe8 a23d
000002d0: dd3e 8b3d 06f0 26bc 8487 743d c546 013e
000002e0: f733 a7bc 8b94 3e3d 6bb8 4fbd 83c1 df3c
000002f0: db49 6cbd 8907 0b3b 7e94 2abd eff7 203d
00000300: 797a 003e f15c 2dbd 2be9 aabd 5d85 d83b
00000310: 833e 8c3d 18cf 04bd fa37 65bd 4a81 1bbd
00000320: 2a07 923d 93e4 6b3d 82f3 d3bd 06db 7a3d
00000330: a752 0e3d a540 babc 28df dfbb a54f 28ba
00000340: d063 04be c496 ccbc ce6c 04bd 2b7d 7dbd
00000350: 9b6e 8f3d 86d1 583d d2ec db3c 535a f0bc
00000360: 0eba b7bc 73be 563b 7c53 a93c d515 e63d
00000370: aef4 d93d f37f 4a3d 1920 c53a 8f60 a5bc
00000380: c995 a5bc 1f97 86bd e5d5 a83a b73e e93d
00000390: 49f7 ce3d ca2a 103d 93e8 1abd 6ea6 5bbd
000003a0: a3df 63bb ff1f ef3d 3a8e a7bc 799d 99bd
000003b0: 7468 a73d 54b9 753d 60b5 26bd acae 3f3d
000003c0: 3438 113d 14bc 3abd d1f0 1e3c 03a7 823c
000003d0: 9474 41bd 9642 62bd 3198 2fbc 2a9d 65bd
000003e0: 5cc5 fb3c 2400 26bb 1981 d1bd 14e2 4d3c
000003f0: f174 fbbd b136 8c3d 1447 033d 7c4c 00bd

transformer.layers.0.self_attn.in_proj_bias f4 [192]
0.006445863 0.0046054106 -0.012423 -0.007601052 0.005610576 0.0062422836 -0.007967155 -0.0011862637
-0.0005944 -0.001981381 -0.003507981 0.011444544 -0.002305811 0.014927079 -0.00026914975 -0.0067585385
0.009200639 0.0029728997 -0.0049142297 -0.00017775812 -0.003446501 0.0015355846 0.000692513 0.0022550777
-4.9486716e-05 0.002891407 -0.0013365345 0.007838438 0.006648051 -0.002414195 0.0055373064 -0.0033715086
-0.013142469 -0.0026900845 -0.0014576004 0.008424296 -0.0020102542 0.013700607 0.00962423 -0.00883931
-0.0048231585 -0.0048057023 -0.00814307 0.0031985694 -0.017842706 0.0001713475 0.0010219994 -0.00016040086
-0.0036636142 -0.009238282 -0.003029794 0.0100715235 -0.008171694 -0.000602157 -0.0057851835 -0.0031758745
-0.005640978 -0.0009885655 -0.015842542 -0.0036992051 -0.010471833 0.004377074 -0.0010057644 0.010716277
7.660098e-08 -6.9361086e-08 2.5185548e-07 2.0937784e-07 3.0774645e-09 -1.4197113e-07 -1.182914e-08 -6.614401e-08
-2.21046e-08 -1.17286746e-07 3.767212e-08 2.5968234e-08 2.1152863e-07 -1.0504767e-07 -1.6273395e-07 2.5591161e-08
-6.131132e-08 5.0336886e-09 -3.3828936e-08 2.4929423e-09 -1.5345661e-07 2.3027474e-07 1.8152042e-07 -7.503525e-08
-4.624825e-08 -2.6102038e-08 -6.116841e-08 6.7247726e-08 1.765223e-07 -4.715248e-08 -8.360418e-08 -2.4823828e-08
1.751829e-07 -3.4368378e-07 1.12457776e-07 1.6485913e-07 -2.926939e-08 6.6419625e-07 -3.9060922e-07 -1.2000416e-07
-2.4028574e-07 -4.121963e-08 2.823327e-07 -1.127173e-07 -2.691533e-08 4.4779508e-08 -5.8697105e-07 -1.1872528e-08
1.1705975e-07 -1.7653978e-08 1.9632773e-09 -3.662331e-08 1.2612303e-07 -1.1026738e-07 5.8686012e-08 -4.0768993e-09
-2.3849077e-07 1.6738116e-07 -1.560433e-07 -1.5647739e-08 -3.1568985e-07 -1.2026844e-08 -1.675007e-07 1.2771053e-08
-0.002877208 -0.0051688342 -0.012166036 -0.0018551878 0.0066694827 0.0030629325 -0.008994331 -0.013220513
0.002358517 -0.006120712 0.0010460628 -0.015811188 -0.014152171 -0.0026052091 0.0049735857 -0.00836129
-0.014472868 -0.0008030049 -0.0013266079 0.0010316997 0.007027014 0.00967867 0.0007790985 0.006078971
-0.005899079 -0.0007652767 -0.002337816 0.0062364223 0.005268593 -0.0053296285 -0.0062094764 -0.008526371
0.010763576 0.013327746 0.003999445 0.0034753475 -0.0027510594 -0.007607918 -0.012423416 -0.002289028
0.023899477 0.021296607 -0.0049548983 -0.010273441 -0.0065242993 -0.014593813 -0.008277611 0.0045802398
0.0006961324 0.004790875 -0.0046706405 -0.008805356 0.0057688314 0.010651722 -0.0028547745 -0.0040853815
0.018088985 -0.0008373201 0.004388767 0.00038098666 0.0074283434 -0.01182895 -0.008946924 -0.0013764076
00000000: d137 d33b fce8 963b d789 4bbc 3f12 f9bb
00000010: ecd8 b73b 128c cc3b ac88 02bc 687c 9bba
00000020: 82d1 1bba 0fda 01bb 28e6 65bb e681 3b3c
00000030: 171d 17bb b590 743c ab1c 8db9 bb76 ddbb
00000040: 47be 163c fbd4 423b 8c07 a1bb 9564 3ab9
00000050: b1de 61bb ab45 c93a c389 353a edc9 133b
00000060: f58f 4fb8 c37d 3d3b a82e afba cb6c 003c
00000070: e5d7 d93b 7937 1ebb 4b72 b53b 87f4 5cbb
00000080: 8353 57bc 214c 30bb f40c bfba 0f06 0a3c
00000090: 78be 03bb 8378 603c f2ae 1d3c c1d2 10bc
000000a0: 960b 9ebb 2779 9dbb 836a 05bc 179f 513b
000000b0: de2a 92bc bfab 3339 9cf4 853a 4731 28b9
000000c0: 3f19 70bb 2a5c 17bc 828f 46bb 0803 253c
000000d0: 92e2 05bc 12da 1dba a391 bdbb 5522 50bb
000000e0: f4d7 b8bb c192 81ba 38c8 81bc 5d6e 72bb
000000f0: 0d92 2bbc 8f6d 8f3b dad3 83ba 5393 2f3c
00000100: d67f a433 a9f3 94b3 c136 8734 58d1 6034
00000110: 547b 5331 ba70 18b4 1c39 4bb2 0e0b 8eb3
00000120: 88e0 bdb2 12df fbb3 efcc 2133 c010 df32
00000130: 8c20 6334 9196 e1b3 f8bb 2eb4 8fd3 db32
00000140: 41aa 83b3 cbf4 ac31 4f4b 11b3 4e50 2b31
00000150: d5c5 24b4 7041 7734 f4e7 4234 1123 a1b3
00000160: 7da2 46b3 fd36 e0b2 b05b 83b3 d469 9033
00000170: 158a 3d34 b384 4ab3 e289 b3b3 2d3c d5b2
00000180: e919 3c34 8a83 b8b4 5180 f133 2204 3134
00000190: 126c fbb2 384b 3235 ecb4 d1b4 7eda 00b4
000001a0: 9f00 81b4 7609 31b3 8393 9734 fe0e f2b3
000001b0: 7033 e7b2 9753 4033 5890 1db5 eef7 4bb2
000001c0: 4762 fb33 82a5 97b2 57ea 0631 c14b 1db3
000001d0: 6f6c 0734 22cc ecb3 f40d 7c33 c914 8cb1
000001e0: ec09 80b4 62b9 3334 db8c 27b4 be69 86b2
000001f0: 157c a9b4 9f9e 4eb2 3eda 33b4 af67 5b32
00000200: 8a8f 3cbb 535f a9bb 0e54 47bc c629 f3ba
00000210: ad8b da3b 7bbb 483b f55c 13bc da9a 58bc
00000220: 5991 1a3b 4190 c8bb 0b1c 893a 7786 81bc
00000230: 82de 67bc 28bc 2abb 76f9 a23b cbfd 08bc
00000240: 9c1f 6dbc bf80 52ba 93e1 adba 193a 873a
00000250: de42 e63b 4993 1e3c 6a3c 4c3a 1b32 c73b
00000260: 104d c1bb da9c 48ba 0b36 19bb e75a cc3b
00000270: 29a4 ac3b 2aa4 aebb dd78 cbbb 31b2 0bbc
00000280: b659 303c 9e5c 5a3c c70d 833b a8c2 633b
00000290: 1e4b 34bb d84b f9bb 958b 4bbc 8403 16bb
000002a0: d6c8 c33c 3976 ae3c b35c a2bb ef51 28bc
000002b0: cac9 d5bb e31a 6fbc d19e 07bc d615 963b
000002c0: a87c 363a c6fc 9c3b 2c0c 99bb 5744 10bc
000002d0: 7708 bd3b 8f84 2e3c 2b17 3bbb aade 85bb
000002e0: 5a2f 943c 9a7f 5bba a5cf 8f3b 2abf c739
000002f0: 7669 f33b 36ce 41bc 1e96 12bc 9368 b4ba

transformer.layers.0.self_attn.out_proj.weight f4 [64, 64]
0.033941697 -0.0029174723 -0.09083263 -0.0899763 0.0051765577 -0.09882322 0.020730406 -0.019341169
0.04980756 0.09005797 -0.07692304 -0.084437944 0.029201522 -0.07472787 -0.11476722 0.08803179
0.003108869 0.042077955 0.11791855 -0.060233545 0.018334368 0.0037456492 0.07400569 0.07443681
-0.07652001 -0.035781845 -0.016040633 -0.09517349 -0.09696889 -0.050457235 -0.10287322 -0.08347782
-0.023731772 -0.09048781 0.04450782 0.048016656 0.020611608 0.11282422 -0.0702459 0.08526561
0.020684142 -0.097285576 -0.060046773 0.1019922 -0.09878909 0.0060856743 0.054259777 0.007792816
0.13539265 0.009062121 0.10792493 -0.017158197 0.015645683 0.0107213985 0.053983543 -0.11713153
0.011431013 0.07956383 -0.091194175 0.1136322 -0.040445447 0.07682793 0.082133695 -0.043839253
0.034758393 0.08551404 0.1169532 0.051415145 -0.045345794 -0.027439628 -0.1194422 0.0229644
0.08079868 0.0023095878 -0.03235933 -0.030371644 0.09234466 0.06557229 0.08758233 0.071539916
-0.07774075 0.071145825 -0.027137864 0.009710854 -0.058286037 0.04496712 0.09077384 -0.07391865
0.0717656 0.03575275 0.12636723 0.032652088 0.1136968 -0.024238683 0.049210615 -0.06723063
-0.032270566 0.08179055 0.03968819 0.09934211 -0.041418355 -0.08618476 0.01943649 0.034855913
0.13287981 0.025452876 -0.0012125897 -0.043972783 -0.04938298 0.08829339 0.09180021 0.0331302
0.03773391 -0.036494505 0.026882933 0.07937192 -0.015189061 -0.053957626 0.055373363 -0.062467676
-0.0442653 -0.101357356 0.01316566 -0.047574095 0.06784776 0.0031282634 0.102445945 0.030757433
-0.044972505 0.0057573365 -0.022241313 0.07649803 -0.105814055 -0.059588447 0.00063796283 0.0063619404
-0.03328779 0.03755201 0.012338752 0.044887837 -0.1240452 -0.056625362 0.06389116 0.06403147
-0.08432745 -0.046663597 0.04002607 0.102128185 -0.055539306 -0.03382922 0.04946412 0.05019561
-0.07150406 0.022579458 0.006074542 0.09567191 0.12111363 0.120134264 0.0961475 0.094853245
-0.0028051385 -0.011677528 -0.041026447 0.047948208 -0.05872593 -0.053348552 -0.12009111 0.054926757
-0.04898244 0.09918901 0.062086456 -0.10069225 0.009181411 0.1134135 -0.09178599 0.0048060687
0.09703621 0.0397125 -0.059153996 0.009611634 0.11167921 0.10131666 -0.09757747 -0.02237166
0.08604031 0.09522265 -0.083127856 -0.0612165 0.060237944 -0.003233885 0.067583986 -0.027769879
0.006311092 0.090561725 -0.09985957 0.10272019 0.028359244 -0.071160085 0.034471292 0.024068968
0.0056347526 0.026578337 -0.068221435 0.016416673 -0.05142639 -0.039504755 -0.07098906 0.09907721
0.116585344 -0.08568003 0.117741935 -0.08787774 -0.08201908 -0.115530804 -0.055683695 0.03546874
-0.07902431 -0.054304365 -0.067209564 0.0949212 0.029357884 -0.101506 -0.010276414 -0.010911501
0.032625616 -0.027431631 0.0445687 0.05161901 0.0821722 -0.03600564 -0.10740109 0.111590914
0.0590008 0.10444357 0.067562684 0.10339982 -0.07433268 -0.028379986 0.064260915 0.085950494
0.054242864 -0.07850726 0.06337342 -0.106291234 -0.124880284 0.06193827 0.058151226 -0.06334974
-0.04956084 -0.091632195 0.016886897 0.043332156 0.02377775 0.0055122753 0.05618012 0.06404632
00000000: 7306 0b3d 1033 3fbb 7506 babd 7f45 b8bd
00000010: 1da0 a93b d463 cabd d0d2 a93c 5f71 9ebc
00000020: 0303 4c3d 5070 b83d d489 9dbd cded acbd
00000030: 0838 ef3c ed0a 99bd 140b ebbd 034a b43d
00000040: 2bbe 4b3b ef59 2c3d 487f f13d 73b7 76bd
00000050: f531 963c 9179 753b 4c90 973d 5472 983d
00000060: 86b6 9cbd fc8f 12bd a567 83bc 52ea c2bd
00000070: a097 c6bd 3fac 4ebd 32af d2bd 6bf6 aabd
00000080: 2269 c2bc ac51 b9bd d54d 363d 1dad 443d
00000090: add9 a83c 6210 e73d 15dd 8fbd bc9f ae3d
000000a0: ca71 a93c a93d c7bd 9bf3 75bd 49e1 d03d
000000b0: ef51 cabd 566a c73b 803f 5e3d e15a ff3b
000000c0: 5fa4 0a3e 4a79 143c bf07 dd3d 598f 8cbc
000000d0: 602b 803c cea8 2f3c d91d 5d3d a8e2 efbd
000000e0: 2549 3b3c 5cf2 a23d 03c4 babd 00b8 e83d
000000f0: 20aa 25bd f657 9d3d b635 a83d ca90 33bd
00000100: d15e 0e3d fc21 af3d 2985 ef3d b098 523d
00000110: 83bc 39bd 12c9 e0bc 1d9e f4bd d61f bc3c
00000120: c779 a53d 745c 173b 388b 04bd f4cd f8bc
00000130: 321f bd3d c44a 863d 5d5e b33d 8583 923d
00000140: 8b36 9fbd e7b4 913d 3a50 debc 461a 1f3c
00000150: 57bd 6ebd 712f 383d a3e7 b93d a962 97bd
00000160: d8f9 923d 7a71 123d 6966 013e 32be 053d
00000170: ded9 e83d 3490 c6bc 1291 493d 36b0 89bd
00000180: 242e 04bd ce81 a73d 1590 223d e073 cb3d
00000190: 4ba6 29bd a381 b0bd 4639 9f3c 13c5 0e3d
000001a0: a511 083e 8d82 d03c c2ef 9eba ce1c 34bd
000001b0: cf45 4abd 2ad3 b43d c001 bc3d 88b3 073d
000001c0: df8e 1a3d 437b 15bd 9939 dc3c bf8d a23d
000001d0: 8adb 78bc ac02 5dbd 2ecf 623d 1bde 7fbd
000001e0: 884f 35bd 7294 cfbd c8b4 573c 0edd 42bd
000001f0: c4f3 8a3d 8d03 4d3b 2ecf d13d 03f7 fb3c
00000200: 1735 38bd 0aa8 bc3b 6a33 b6bc 00ab 9c3d
00000210: 0ab5 d8bd 0413 74bd f63c 273a d377 d03b
00000220: c758 08bd 23d0 193d 7a28 4a3c 4fdc 373d
00000230: 690b febd ffef 67bd 5ed9 823d ee22 833d
00000240: dfb3 acbd 5422 3fbd 60f2 233d 9528 d13d
00000250: 2f7d 63bd 8290 0abd e49a 4a3d e999 4d3d
00000260: b870 92bd 8ef8 b83c f40c c73b a2ef c33d
00000270: 6c0a f83d f408 f63d fbe8 c43d 6b42 c23d
00000280: 6ad6 37bb 1a53 3fbc 590b 28bd 5765 443d
00000290: 9a8a 70bd 0384 5abd 54f2 f5bd e1fa 603d
000002a0: d0a1 48bd 9c23 cb3d 5e4e 7e3d bd37 cebd
000002b0: a16d 163c 5645 e83d 4bfa bbbd 3a7c 9d3b
000002c0: ecba c63d 93a9 223d 764b 72bd 1d7a 1d3c
000002d0: 12b8 e43d 1c7f cf3d b2d6 c7bd c644 b7bc
000002e0: e735 b03d 1804 c33d f03e aabd 27be 7abd
000002f0: 10bc 763d 96ef 53bb 7969 8a3d a87d e3bc
00000300: 47cd ce3b 6d78 b93d 2d83 ccbd f75e d23d
00000310: a551 e83c 61bc 91bd c531 0d3d 492c c53c
00000320: bba3 b83b d0ba d93c aeb7 8bbd 427c 863c
00000330: 7aa4 52bd bdcf 21bd b662 91bd fee8 ca3d
00000340: 4cc4 ee3d 0379 afbd af22 f13d 3ff9 b3bd
00000350: 9ff9 a7bd 6a9b ecbd 9614 64bd ab47 113d
00000360: 7fd7 a1bd 416e 5ebd 2ba5 89bd 0c66 c23d
00000370: f27f f03c 61e2 cfbd 685e 28bc 27c6 32bc
00000380: 70a2 053d 4db8 e0bc ab8d 363d 746e 533d
00000390: e649 a83d a67a 13bd 1af5 dbbd c789 e43d
000003a0: d3aa 713d 83e6 d53d 4e5e 8a3d 49c3 d33d
000003b0: bb3b 98bd 257d e8bc 3a9b 833d d006 b03d
000003c0: c42d 5e3d 6ac8 a0bd ecc9 813d 38af d9bd
000003d0: 3cc1 ffbd fcb2 7d3d fb2f 6e3d 82bd 81bd
000003e0: 4f00 4bbd a9a9 bbbd 6456 8a3c 0f7d 313d
000003f0: 8ec9 c23c 51a0 b43b 201d 663d b82a 833d

transformer.layers.0.self_attn.out_proj.bias f4 [64]
0.0056901374 -0.013965135 -0.0082457075 0.004298855 -0.009850691 -0.003161919 0.0021560248 -0.009019546
-0.0026452716 0.0007145397 0.0125270635 0.0115765575 0.016079564 -0.0038407943 -0.016547495 0.003315663
-0.009585823 -0.011009263 -0.006552642 -0.0024046605 -0.006410137 -0.0033861736 -0.006072644 0.008452614
-0.0061221793 -0.011652521 -0.0010157607 -0.0022261904 0.0051788194 0.0071535553 -0.017799066 -0.0057175765
-0.0045329593 0.0035846075 -0.00861534 0.0035200017 0.011628411 -0.012141068 -0.0072205947 -0.00039217586
-0.0045263995 0.018182177 0.004902141 0.0097207455 0.027181288 0.005073527 -0.0037393528 -0.0019702858
-0.004405595 0.0033270267 0.0053942795 -0.010515067 0.008876454 -0.003045947 0.0030234666 0.0036651671
0.0044207955 0.015283167 0.01152864 0.0063959104 -0.010459218 0.0068703317 -0.0067816214 -0.0066838125
00000000: 5574 ba3b 06ce 64bc 0119 07bc 69dd 8c3b
00000010: cb64 21bc 3338 4fbb 184c 0d3b b8c6 13bc
00000020: 4b5c 2dbb f34f 3b3a 503e 4d3c 9aab 3d3c
00000030: 4ab9 833c d6b5 7bbb 9d8e 87bc 984b 593b
00000040: db0d 1dbc 3260 34bc 8cb7 d6bb 8297 1dbb
00000050: 200c d2bb 91ea 5dbb 08fd c6bb d57c 0a3c
00000060: 909c c8bb 37ea 3ebc 4623 85ba 47e5 11bb
00000070: 16b3 a93b 5f68 ea3b 59cf 91bc 825a bbbb
00000080: 3889 94bb bceb 6a3b 5b27 0dbc d4af 663b
00000090: 1785 3e3c 54eb 46bc bd9a ecbb f49c cdb9
000000a0: 3152 94bb caf2 943c 24a2 a03b c343 1f3c
000000b0: 4bab de3c d43f a63b ee0f 75bb e91f 01bb
000000c0: cf5c 90bb 3f0a 5a3b 7fc2 b03b 6347 2cbc
000000d0: 8c6e 113c 839e 47bb 5a25 463b 4d33 703b
000000e0: 52dc 903b 4066 7a3c 9fe2 3c3c c994 d13b
000000f0: 245d 2bbc 8520 e13b 5d38 debb e203 dbbb

transformer.layers.0.linear1.weight f4 [128, 64]
-0.11329048 -0.012889092 0.011100196 0.11676721 0.014380673 -0.04969191 0.063021116 -0.04438949
0.088372305 -0.085456766 0.045873273 0.004384862 -0.0056628934 0.021873394 0.04271332 -0.07856739
-0.07344254 0.01329567 -6.168436e-05 -0.015525038 -0.034272056 0.05217711 0.051930666 -0.0451366
-0.09261587 -0.048803188 -0.100331485 0.040278647 -0.029657066 -0.1023719 0.007864111 -0.0875884
-0.08950072 -0.13309619 -0.06189983 -0.10338519 0.08923845 -0.046247713 0.09505975 -0.09309107
0.12616172 -0.08846726 0.09667858 -0.028231733 0.033440433 -0.023868006 -0.045324232 -0.09083066
0.04870447 0.08304583 0.009575975 0.054894436 0.06800149 -0.017070757 0.0452027 0.02238469
0.07669299 0.044062223 -0.04524379 -0.1027172 -0.103873804 -0.027215704 -0.106796116 0.047919314
0.106685385 0.07515753 -0.030449202 -0.0024589053 0.017794779 -0.039518055 -0.08426043 0.073160395
0.050459385 -0.056493133 0.06426262 0.07260514 -0.06679224 -0.018380363 0.07340863 -0.11560959
-0.06260428 0.016376907 0.10121365 0.0133326715 0.05379579 -0.0977366 0.08891444 0.022176202
-0.09639311 0.048288126 -0.0071685333 -0.10084233 -0.031335484 -0.027452428 0.030125469 0.011893406
0.05801182 0.06681985 -0.012726635 -0.060025837 0.101195335 0.10011526 0.105208635 0.057910863
0.028335426 -0.011157641 -0.03563501 -0.035127044 0.11057539 -0.005907516 -0.087848 0.11184089
-0.06526879 -0.05012116 -0.07822884 0.01736228 0.04102945 0.08858112 0.05247656 0.0028346498
0.032404844 0.09722055 0.12263345 -0.001118591 -0.027482549 -0.06049971 -0.0995231 -0.08631156
-0.052960936 0.090996616 0.07110471 0.006404832 -0.010450941 -0.046751525 0.046481237 0.025731051
-0.06947314 -0.115441665 0.12644546 0.08750623 -0.008584434 0.06542437 0.10622914 0.083332896
-0.06954695 -0.04136484 -0.07284546 -0.07966287 0.011159457 -0.04463801 -0.030388 0.09489197
0.048164487 -0.07960081 -0.10104281 -0.095831424 -0.017568976 0.09693213 -0.014670264 0.07223369
0.04991416 0.026053347 0.11484842 0.11246038 -0.10677835 0.108715676 0.011818689 0.024754632
-0.072908685 0.05000071 -0.07525532 -0.042827003 -0.10611928 -0.0666822 0.099579215 0.0034207907
0.049687926 -0.01900843 -0.10168098 -0.00064788974 0.004660287 -0.030010018 0.05624601 0.08417187
0.063897215 -0.018668279 0.07901425 0.06081735 -0.124609895 0.013668529 -0.07405568 0.10744353
0.083391525 -0.07835398 -0.07057986 -0.09205952 0.09160975 -0.123730674 0.11613929 -0.09026888
-0.15438482 -0.0695867 0.0794488 -0.018192641 0.022750175 0.08117706 0.03608743 0.08488074
0.08363139 -0.07731903 -0.019563025 -0.05821076 -0.104286715 0.08632748 0.033923544 0.07325684
-0.013457908 -0.08551902 0.024591945 -0.028424904 -0.067926235 0.0029253303 0.06657996 -0.046298347
0.038986437 -0.04886891 0.081738144 -0.079767674 -0.0062878053 0.02180406 0.032949768 -0.10571812
-0.10307115 -0.06666162 -0.003982254 -0.056080714 -0.093276426 -0.04414023 0.0083629135 0.015561327
-0.0571992 0.047544 0.012219477 0.112431884 -0.015821379 0.037305124 -0.04065242 -0.07572322
0.059145555 0.045638427 -0.09457493 -0.023575235 -0.12501249 -0.07208082 -0.03492834 -0.020928133
00000000: d704 e8bd c52c 53bc 99dd 353c a623 ef3d
00000010: ea9c 6b3c bf89 4bbd 3711 813d c1d1 35bd
00000020: 8afc b43d f503 afbd 9de5 3b3d e3ae 8f3b
00000030: cb8f b9bb d52f b33c 2af4 2e3d f1e7 a0bd
00000040: 0b69 96bd 15d6 593c 8a5c 81b8 bb5c 7ebc
00000050: db60 0cbd aab7 553d 40b5 543d 28e1 38bd
00000060: 64ad bdbd dae5 47bd 987a cdbd 39fb 243d
00000070: 60f3 f2bc 5ca8 d1bd 79d8 003c 8c61 b3bd
00000080: 274c b7bd 5e4a 08be ad8a 7dbd 9dbb d3bd
00000090: a6c2 b63d 3e6e 3dbd b0ae c23d 88a6 bebd
000000a0: 8a30 013e 532e b5bd 6bff c53d 3c46 e7bc
000000b0: d6f8 083d d686 c3bc e7a5 39bd 6d05 babd
000000c0: 577e 473d ef13 aa3d 8de4 1c3c fdd8 603d
000000d0: 5d44 8b3d f9d7 8bbc 7726 393d 1960 b73c
000000e0: 3711 9d3d 977a 343d 8d51 39bd 655d d2bd
000000f0: cabb d4bd 78f3 debc ecb7 dabd 0b47 443d
00000100: de7d da3d 31ec 993d 9b70 f9bc 9625 21bb
00000110: 5bc6 913c afdd 21bd bb90 acbd 1ed5 953d
00000120: 80ae 4e3d 5865 67bd 1f9c 833d 01b2 943d
00000130: 5fca 88bd 6a92 96bc 4457 963d b9c4 ecbd
00000140: ac36 80bd dd28 863c 1a49 cf3d 4771 5a3c
00000150: f958 5c3d 202a c8bd c618 b63d deaa b53c
00000160: c069 c5bd c5c9 453d 04e6 eabb 6c86 cebd
00000170: a359 00bd eae3 e0bc b0c9 f63c 8fdc 423c
00000180: cd9d 6d3d d8d8 883d 6083 50bc a7dd 75bd
00000190: 803f cf3d 3b09 cd3d a077 d73d f133 6d3d
000001a0: b21f e83c 8ace 36bc 04f6 11bd 60e1 0fbd
000001b0: 5a75 e23d d693 c1bb a7e9 b3bd d60c e53d
000001c0: a5ab 85bd d84b 4dbd 7136 a0bd 573b 8e3c
000001d0: 7f0e 283d 056a b53d a9f1 563d 88c5 393b
000001e0: f1ba 043d 911b c73d 3f27 fb3d b09d 92ba
000001f0: 1523 e1bc 8bce 77bd c4d2 cbbd 1dc4 b0bd
00000200: 91ed 58bd 6f5c ba3d 599f 913d a0df d13b
00000210: 6c3a 2bbc 877e 3fbd 1c63 3e3d edc9 d23c
00000220: ef47 8ebd ae6c ecbd eb7a 013e 7736 b33d
00000230: baa5 0cbc 36fd 853d aa8e d93d 70aa aa3d
00000240: a26e 8ebd 2e6e 29bd 0030 95bd 4926 a3bd
00000250: 28d6 363c 59d6 36bd 41f0 f8bc b956 c23d
00000260: 2048 453d c005 a3bd 88ef cebd 4443 c4bd
00000270: d0ec 8fbc 5a84 c63d 8c5b 70bc 42ef 933d
00000280: ca72 4c3d d46d d53c a635 eb3d a151 e63d
00000290: 9cae dabd 53a6 de3d 2da3 413c 3aca ca3c
000002a0: 2651 95bd 8bcd 4c3d 761f 9abd 5e6b 2fbd
000002b0: 1155 d9bd ad90 88bd 30f0 cb3d 582f 603b
000002c0: 9185 4b3d 91b7 9bbc 1e3e d0bd 25d7 29ba
000002d0: 52b5 983b 92d7 f5bc 3762 663d 4d62 ac3d
000002e0: 8bdc 823d 38ee 98bc 39d2 a13d 9d1b 793d
000002f0: 7933 ffbd f7f1 5f3c 81aa 97bd 5a0b dc3d
00000300: 2dc9 aa3d 0d78 a0bd 2c8c 90bd b489 bcbd
00000310: e59d bb3d 8266 fdbd 70da ed3d e4de b8bd
00000320: 0e17 1ebe 7983 8ebd 0db6 a23d bc08 95bc
00000330: 935e ba3c 2940 a63d 6ad0 133d f4d5 ad3d
00000340: ef46 ab3d 7159 9ebd a342 a0bc 686e 6ebd
00000350: 4694 d5bd 76cc b03d 6af3 0a3d af07 963d
00000360: 8f7e 5cbc 9924 afbd 0c75 c93c 58db e8bc
00000370: e91c 8bbd e6b6 3f3b 135b 883d 56a3 3dbd
00000380: 3eb0 1f3d c42a 48bd 5466 a73d 3c5d a3bd
00000390: ef09 cebb 6e9e b23c 56f6 063d be82 d8bd
000003a0: f816 d3bd e385 88bd 917d 82bb e4b4 65bd
000003b0: b607 bfbd 63cc 34bd 9a04 093c f0f4 7e3c
000003c0: b549 6abd 7fbd 423d 3434 483c b042 e63d
000003d0: d69b 81bc 42cd 183d 2783 26bd c714 9bbd
000003e0: 9c42 723d 5cef 3a3d 80b0 c1bd da20 c1bc
000003f0: 4603 00be 1c9f 93bd 0511 0fbd 7a71 abbc

transformer.layers.0.linear1.bias f4 [128]
-0.010463162 -0.0073176306 -0.06637123 -0.04210074 0.010728286 0.0450906 -0.072813064 -0.093685955
-0.0131796645 0.08189238 -0.025391016 0.104824126 -0.090407304 0.0022290053 0.07931938 0.0868011
0.09627266 -0.070153505 0.078917876 0.0014844591 -0.08341846 0.05480394 -0.06322575 -0.06975103
-0.05057651 -0.10141775 -0.050382126 0.07517957 0.09558948 -0.012829106 0.06701198 0.052072328
0.09354952 0.023468709 -0.112634264 -0.051913247 -0.0021186818 0.050310474 -0.111236334 0.021283884
0.095188946 -0.090559274 -0.025099266 -0.03202371 0.037722312 -0.0645632 -0.04280863 0.012048809
0.047327787 -0.06445138 -0.054006975 0.11304899 0.008903756 0.07407695 -0.11992595 0.00494731
0.009237544 -0.046548348 0.09410358 -0.08512516 0.074840814 -0.11375464 -0.08798509 -0.011475408
-0.00992655 0.093638085 0.089408055 -0.12363175 0.109723434 -0.036267556 0.09953999 -0.108754955
0.11031706 0.07653912 0.02656209 0.008695107 -0.11273069 -0.002961555 0.008404632 0.07027446
-0.09589714 -0.10873947 0.073505595 0.078943774 0.11096438 -0.074567385 0.028030409 -0.068267435
0.08498936 -0.10723761 -0.02421113 -0.04549462 0.011051276 -0.046981256 -0.015398416 -0.091024354
-0.13532366 -0.041717958 -0.046514813 -0.05038682 0.05436795 -0.024641419 -0.102069184 -0.10215899
0.012707298 -0.026340371 0.08317828 -0.0187657 0.11585004 -0.054469522 -0.109143205 -0.00033819204
0.031067913 0.023723152 0.03869665 0.03380888 -0.06980511 -0.06355419 0.097668365 -0.094142914
-0.0062999856 -0.070150375 -0.104009874 0.014993666 -0.042219985 0.01828674 0.080206074 0.00093152496
00000000: af6d 2bbc bcc8 efbb a4ed 87bd d371 2cbd
00000010: b1c5 2f3c ecb0 383d 041f 95bd 6cde bfbd
00000020: 85ef 57bc 31b7 a73d d200 d0bc 08ae d63d
00000030: 7727 b9bd 8114 123b 3372 a23d c6c4 b13d
00000040: 9a2a c53d a4ac 8fbd b29f a13d 2f92 c23a
00000050: 4cd7 aabd 197a 603d 817c 81bd a1d9 8ebd
00000060: 5129 4fbd 1cb4 cfbd 7d5d 4ebd bff7 993d
00000070: 6bc4 c33d 2c31 52bc 943d 893d cb49 553d
00000080: e496 bf3d 7341 c03c cbac e6bd fca2 54bd
00000090: 95d9 0abb 5b12 4e3d e0cf e3bd 8a5b ae3c
000000a0: 6cf2 c23d 2477 b9bd fa9c cdbc 4b2b 03bd
000000b0: b682 1a3d b639 84bd 1a58 2fbd 5e68 453c
000000c0: c8da 413d 16ff 83bd 6b36 5dbd 3b86 e73d
000000d0: 0fe1 113c a8b5 973d bd9b f5bd 0b1d a23b
000000e0: 1159 173c 7ba9 3ebd 61b9 c03d 1a56 aebd
000000f0: 2446 993d 31f8 e8bd 8731 b4bd 5a03 3cbc
00000100: f8a2 22bc 53c5 bf3d 921b b73d a532 fdbd
00000110: aeb6 e03d 4a8d 14bd 9fdb cb3d ebba debd
00000120: e9ed e13d 8bc0 9c3d bd98 d93c ec75 0e3c
00000130: 59df e6bd a616 42bb 95b3 093c 0eec 8f3d
00000140: b865 c4bd cdb2 debd 1a8a 963d 46ad a13d
00000150: 4b41 e33d c9b6 98bd 07a0 e53c cccf 8bbd
00000160: e70e ae3d 649f dbbd 6b56 c6bc 9158 3abd
00000170: 6910 353c 6b6f 40bd a349 7cbc fa6a babd
00000180: 4992 0abe 73e0 2abd 5186 3ebd 6962 4ebd
00000190: edb0 5e3d cddc c9bc a609 d1bd bc38 d1bd
000001a0: 4532 503c c3c7 d7bc 6059 aa3d 86ba 99bc
000001b0: c942 ed3d 6f1b 5fbd 7986 dfbd 5e4f b1b9
000001c0: 2382 fe3c 0e57 c23c 6180 1e3d 2e7b 0a3d
000001d0: fbf5 8ebd b328 82bd 5a06 c83d 00ce c0bd
000001e0: 1c70 cebb 00ab 8fbd 2103 d5bd fea7 753c
000001f0: ddee 2cbd 13ce 953c 1543 a43d 9531 743a

transformer.layers.0.linear2.weight f4 [64, 128]
-0.04825219 -0.035870574 -0.0023471927 -0.028830044 0.046239257 -0.0018958856 -0.045586973 0.02706656
-0.07606632 0.053727612 -0.038943145 0.031899255 -0.061226644 0.030878186 -0.0110695055 0.041170564
0.050719436 -0.0459888 0.014454487 -0.058136344 0.078979984 -0.06753092 -0.0127073405 0.04874232
0.06288043 -0.052701082 0.082714744 -0.033990834 -0.023812203 -0.0121858725 0.010760198 0.023210013
0.038425475 0.012209171 -0.037481144 -0.0043997345 -0.0262935 -0.07183582 0.05220537 0.036037743
0.061181318 -0.054270018 -0.014912122 0.031814627 -0.024123942 -0.03707013 -0.053602275 -0.068594776
-0.07442034 -0.011481906 0.026449218 0.030193869 0.015766153 -0.045141403 0.041319955 -0.011620472
0.07111417 -0.0040918794 -0.053342517 0.03836621 -0.006933361 0.027836347 -0.041803908 -0.06660844
0.084660694 -0.06616857 0.08063556 0.014461249 -0.0038663757 0.03339406 -0.069877975 0.07901767
-0.058189936 0.06477605 0.045567118 0.035611007 0.012752661 -0.06550843 -0.072417326 0.0025941494
0.03599682 0.023200888 0.07113166 -0.0037151214 -0.031509202 -0.014049768 -0.058769092 -0.018055659
-0.05114074 -0.056502197 0.061941892 -0.07938346 -0.025837705 0.009665379 0.052945048 -0.055494554
0.013254424 0.04377131 -0.0693958 0.040967286 -0.0282687 0.066166334 0.01336237 -0.027410382
-0.02179068 0.029218217 0.05837283 0.025604462 0.059804566 0.01702314 0.0069039417 0.041410018
0.008703917 0.06056041 -0.008213018 -0.027853413 0.07182164 -0.07051697 0.052242506 -0.057212163
-0.024327774 0.013247434 -0.076009825 0.07609222 -0.03687576 0.07932824 -0.006022974 -0.033799045
0.02857618 -0.06113182 -0.051753253 -0.010825671 -0.013326611 -0.018876499 -0.056623735 0.05869413
0.023368016 -0.030123634 0.05567886 -0.015347398 0.062448945 0.043056455 -0.08318483 -0.05084775
-0.07938838 -0.029715877 0.035329368 0.052523583 0.066529304 -0.081674896 -0.081203766 0.0688681
-0.014089592 -0.01296879 -0.041615486 -0.09642683 -0.09220826 -0.015933024 0.035974093 -0.022640057
-0.03343729 -0.008357761 -0.0566991 0.061345853 0.0072562643 0.033456855 -0.057095718 -0.0021929948
-0.06772195 0.05653922 -0.025325604 0.03583562 0.03633221 -0.07979233 0.060926795 -0.09259224
-0.09054385 0.002484874 -0.034315694 -0.08033637 0.016014572 0.06236361 -0.037025653 -0.026489975
-0.034302413 -0.06849336 0.03184141 -0.05324901 -0.042286135 0.06426297 0.016736818 -0.08585704
-0.076249614 0.0483903 0.05720907 0.012822525 -0.06627935 0.05686106 -0.0962803 0.050979078
0.044288427 -0.03940277 0.042507958 0.00022478918 -0.010472796 -0.019486843 0.048589543 0.037188455
0.046476834 -0.04873854 -0.06858947 0.011608877 -0.07034574 -0.05789025 -0.02287578 -0.07329617
-0.0673591 -0.025655517 0.07246688 -0.08435035 -0.024653597 0.07068854 0.07445211 0.012966809
-0.019758215 -0.008212672 0.053310458 -0.087982304 0.071068645 0.060646676 0.03384542 0.029897165
0.021384802 0.026884181 0.040938802 0.011172082 0.014506574 0.062001362 -0.091051996 -0.07938852
0.00028790528 -0.020234311 -0.07487689 0.037435077 -0.0065219007 0.06546384 -0.0051888577 0.007468763
0.07498166 -0.057323407 -0.085317574 -0.024491109 -0.069720194 -0.07757352 0.005759824 -0.027018419
00000000: 17a4 45bd 06ed 12bd 5cd3 19bb fc2c ecbc
00000010: 6065 3d3d 5d7f f8ba 68b9 3abd b1ba dd3c
00000020: a9c8 9bbd 7c11 5c3d d982 1fbd cba8 023d
00000030: cac8 7abd 40f4 fc3c df5c 35bc 77a2 283d
00000040: 2fbf 4f3d c05e 3cbd 83d2 6c3c 6020 6ebd
00000050: 42c0 a13d a74d 8abd 7332 50bc 07a6 473d
00000060: 74c7 803d 17dd 57bd 5966 a93d f939 0bbd
00000070: cf11 c3bc 41a7 47bc 8b4b 303c ed22 be3c
00000080: 0864 1d3d fa08 483c d485 19bd a62b 90bb
00000090: 7765 d7bc a91e 93bd 4cd5 553d 509c 133d
000000a0: 4399 7a3d 3d4a 5ebd f951 74bc 0e50 023d
000000b0: 939f c5bc d9d6 17bd 0f8e 5bbd 6b7b 8cbd
000000c0: b169 98bd 9b1e 3cbc 08ac d83c 2259 f73c
000000d0: 0528 813c 31e6 38bd 1d3f 293d cb63 3ebc
000000e0: 4ea4 913d 2c15 86bb af7d 5abd e325 1d3d
000000f0: 3f31 e3bb 0d09 e43c 933a 2bbd 016a 88bd
00000100: 9662 ad3d 6383 87bd 4224 a53d e0ee 6c3c
00000110: 0563 7dbb 36c8 083d 2f1c 8fbd 04d4 a13d
00000120: 9258 6ebd 4ea9 843d 96a4 3a3d d9dc 113d
00000130: 89f0 503c 4929 86bd 894f 94bd 9b02 2a3b
00000140: 6771 133d ca0f be3c 7aad 913d 6579 73bb
00000150: cb0f 01bd 0031 66bc dcb7 70bd 76e9 93bc
00000160: f478 51bd d96e 67bd c8b6 7d3d cc93 a2bd
00000170: 98a9 d3bc 8a5b 1e3c e8dc 583d 424e 63bd
00000180: 1529 593c 8c49 333d 631f 8ebd 50cd 273d
00000190: c393 e7bc 3782 873d d8ed 5a3c bd8b e0bc
000001a0: 5e82 b2bc 0b5b ef3c 5918 6f3d 73c0 d13c
000001b0: a2f5 743d 1d74 8b3c 763a e23b 8d9d 293d
000001c0: e09a 0e3c 310e 783d e58f 06bc d72c e4bc
000001d0: 3917 933d 336b 90bd 3dfc 553d 4d57 6abd
000001e0: 0a4b c7bc c40b 593c 0aab 9bbd 3dd6 9b3d
000001f0: 090b 17bd d876 a23d 5e5c c5bb de70 0abd
00000200: 9818 ea3c 5c65 7abd 38fb 53bd 285e 31bc
00000210: dc57 5abc e3a2 9abc 4aee 67bd 4269 703d
00000220: 486e bf3c d7c5 f6bc 840f 643d a773 7bbc
00000230: 77ca 7f3d f75b 303d cf5c aabd bb45 50bd
00000240: 6096 a2bd b66e f3bc 87b5 103d f822 573d
00000250: 8440 883d 2b45 a7bd 294e a6bd b80a 8d3d
00000260: 08d8 66bc 0c7b 54bc 0075 2abd 6e7b c5bd
00000270: afd7 bcbd f985 82bc 9259 133d a477 b9bc
00000280: 8af5 08bd feee 08bc 513d 68bd ca45 7b3d
00000290: f5c5 ed3b 0e0a 093d 33dd 69bd 59b8 0fbb
000002a0: ceb1 8abd ab95 673d a477 cfbc 5fc8 123d
000002b0: 15d1 143d 296a a3bd 608e 793d 00a1 bdbd
000002c0: 0e6f b9bd 45d9 223b 9d8e 0cbd 6587 a4bd
000002d0: fe30 833c fc70 7f3d 36a8 17bd 8101 d9bc
000002e0: b080 0cbd 3f46 8cbd 236c 023d a21b 5abd
000002f0: 3a34 2dbd 4e9c 833d a71b 893c d1d5 afbd
00000300: c228 9cbd e834 463d 0f54 6a3d 9115 523c
00000310: 78bd 87bd 25e7 683d 9b2e c5bd 70cf 503d
00000320: c867 353d cd64 21bd d31c 2e3d 63b5 6b39
00000330: 1796 2bbc dfa2 9fbc d405 473d ec52 183d
00000340: 7e5e 3e3d 10a2 47bd a378 8cbd 2933 3e3c
00000350: 6d11 90bd 541e 6dbd fd65 bbbc 4d1c 96bd
00000360: 91f3 89bd 852b d2bc 8469 943d e0bf acbd
00000370: 57f6 c9bc 27c5 903d 597a 983d bd72 543c
00000380: fbdb a1bc 718e 06bc 115c 5a3d 1130 b4bd
00000390: 708c 913d a668 783d 7fa1 0a3d e6ea f43c
000003a0: 2e2f af3c 373c dc3c 72af 273d 1c0b 373c
000003b0: fbac 6d3c 24f5 7d3d 7879 babd 7396 a2bd
000003c0: fef1 9639 6dc2 a5bc 0e59 99bd 8655 193d
000003d0: abb5 d5bb e811 863d 4b07 aabb 86bc f43b
000003e0: fc8f 993d f3cb 6abd fbba aebd 94a1 c8bc
000003f0: 76c9 8ebd dede 9ebd e8bc bc3b bb55 ddbc

transformer.layers.0.linear2.bias f4 [64]
-0.066621274 -0.003598119 -0.0011633103 -0.06649399 -0.080821484 0.06206293 -0.028325824 0.051857486
-0.07647936 -0.04757751 -0.040888064 -0.005203675 -0.0113387825 -0.012715331 -0.10273072 0.04423898
0.030084364 0.07613521 -0.05801462 0.06802948 0.024582053 -0.06483633 -0.049575076 0.054514058
-0.07853043 0.059003867 -0.007936446 0.046162933 0.05960969 -0.02479544 -0.0269733 -0.002431951
0.03139222 0.025611972 -0.03795587 0.049126048 -0.07670288 -0.039911263 -0.0037701922 0.027201205
0.010072533 0.066532925 -0.055646826 0.035056077 0.018549558 0.080604725 0.07952804 -0.05977835
-0.043278456 -0.064004466 -0.017797975 0.060486943 -0.042133365 -0.087449744 -0.0022959183 0.03263153
-0.082082145 0.059274383 0.046548285 -0.06733773 -0.04311439 0.033786464 -0.050188176 -0.031115413
00000000: bc70 88bd 6bce 6bbb 377a 98ba 002e 88bd
00000010: bc85 a5bd b335 7e3d 8f0b e8bc 8468 543d
00000020: 36a1 9cbd a3e0 42bd 3e7a 27bd 9783 aabb
00000030: 4dc6 39bc f753 50bc 7c64 d2bd ef33 353d
00000040: 7c73 f63c c7ec 9b3d bda0 6dbd 0a53 8b3d
00000050: 4d60 c93c e9c8 84bd 3c0f 4bbd 224a 5f3d
00000060: 90d4 a0bd 0aae 713d de07 02bc 5815 3d3d
00000070: 4a29 743d ce1f cbbc 1cf7 dcbc 5e61 1fbb
00000080: 2195 003d 33d0 d13c 9d77 1bbd 6538 493d
00000090: 6616 9dbd fe79 23bd 5415 77bb 10d5 de3c
000000a0: 4407 253c 6a42 883d eded 63bd f696 0f3d
000000b0: 3ef5 973c 1714 a53d 99df a23d 25da 74bd
000000c0: c044 31bd c614 83bd 0fcd 91bc 28c1 773d
000000d0: 0994 2cbd da18 b3bd 1e77 16bb a4a8 053d
000000e0: af1a a8bd b2c9 723d 6aa9 3e3d 5de8 89bd
000000f0: b798 30bd ad63 0a3d 1e92 4dbd c0e5 febc
