joyverse/backend/model copy/best_model1.pth (torch, 539042 bytes, 41 tensors)

pos_embedding f4 [1, 468, 64]
000000 f4 db b5 3c d4 73 43 bc db 6b 0c be 37 ae d0 bc
       0.022199608 -0.011929471 -0.13713019 -0.025473697
000010 ff 0e a5 3c a1 e8 ad 3c c0 cd 8e bb 64 b8 b3 3c
       0.020148752 0.02122909 -0.0043580234 0.02193851
000020 00 19 4d 3c fb 71 d6 3c cc f8 10 3d 5b 0e 14 3d
       0.0125181675 0.026177397 0.03539352 0.036146503
000030 f9 b3 e6 bc 4d cb d1 bc 76 6e 87 3b 14 45 3c 3d
       -0.02816199 -0.025609637 0.004133041 0.045964316
000040 32 b5 b9 bb ee 9c 6c 3c 4c a6 af 3c c6 98 c0 bc
       -0.005667352 0.014441712 0.021441601 -0.023510348
000050 9b b5 82 bd b3 50 0f bb fe 3d 0f 3c f9 ef 38 bc
       -0.06382295 -0.002186817 0.008742807 -0.011287683
000060 0a ed 1c bc 11 ce 19 3a 72 54 a8 3c e2 11 37 bd
       -0.009577999 0.0005867193 0.02054808 -0.04469479
000070 61 1d 8f 3e f6 4b e1 bc e1 cf ce bc 7b c4 4e bd
       0.27952102 -0.027502041 -0.025245609 -0.050480347
000080 b5 aa 11 bd 73 f4 88 bc ec 40 86 3c 5e 7c 58 bb
       -0.03556319 -0.016718125 0.016388379 -0.0033033113
000090 da b7 47 3c e5 9b 33 bd d1 88 b6 bc 69 13 49 3d
       0.01218983 -0.043849844 -0.022282036 0.049090777
0000a0 03 ba 5d 3b 95 b6 9c bc e5 ac 00 3d 43 84 b2 bc
       0.0033832795 -0.01913003 0.031414885 -0.021791583
0000b0 f6 39 96 bc fc d3 fa 3c d8 85 83 3b 9e 05 a2 3c
       -0.018338185 0.03061866 0.004013758 0.01977807
0000c0 81 0f 72 3a bb 30 b6 bc 69 eb 79 3c 43 ce af 3c
       0.00092338776 -0.022240033 0.01525388 0.021460658
0000d0 c4 86 6a 3c a1 5b c8 bb 4d 46 2c 3e c5 91 83 bc
       0.014314357 -0.0061144386 0.16823693 -0.01606072
0000e0 dc a6 a1 bb 51 ea a7 3c a4 d3 95 bc 8e 0b 52 3c
       -0.0049332213 0.020497473 -0.018289395 0.012820138
0000f0 c5 d0 c4 3c e1 3a 1f 3c 75 a0 01 3b 08 61 09 bc
       0.02402533 0.009718628 0.0019779478 -0.00838495
000100 b4 2f bc 3c bd 2f ea 3b c0 3a 4d bd 3c 38 b4 3c
       0.022971965 0.007146804 -0.050104856 0.02199947
000110 a8 f6 26 bb a3 18 0c 3b 50 1f a6 bc 42 5b 88 bd
       -0.0025476608 0.002137699 -0.020278603 -0.06658031
000120 87 66 96 bc f4 9c 2b 3e 57 de d8 bb 82 90 ad 3b
       -0.018359436 0.16759092 -0.006618302 0.0052967677
000130 04 4b 83 bc b8 a6 97 3c 29 27 96 3c ad 2e 2a 3d
       -0.016026981 0.018512115 0.01832922 0.04154842
000140 1d 0d 12 3d 3b e5 6f 3b 26 fc 9e bc 0a 80 9f 3b
       0.035657037 0.0036605138 -0.019407343 0.0048675584
000150 17 dd f7 3b 3f 8b 86 be 97 58 98 bc 68 46 74 3d
       0.0075641978 -0.2627811 -0.01859693 0.059637457
000160 78 f9 2e bd 59 31 e8 bc 7e 96 50 3c 33 49 2e bd
       -0.04271838 -0.028343843 0.012731193 -0.042550277
000170 91 54 e6 bc a1 4d 86 3d 4e 9e 2e bc 6e ef 17 bd
       -0.028116496 0.06557775 -0.01065786 -0.037093572
000180 9c 90 63 3e 30 af 9f 3c b2 a7 19 bb be 1c 21 bc
       0.22223133 0.019492716 -0.0023445901 -0.009833513
000190 94 75 c4 bc f1 db 5c be f3 b0 1e 3c a1 7b e1 bc
       -0.023981847 -0.21568276 0.009685743 -0.027524771
0001a0 eb 8f 73 bc f3 18 ce bc 81 db 34 3c 31 c4 46 bc
       -0.014865856 -0.025158381 0.011038662 -0.012131737
0001b0 8e 5f 9f 3c 26 80 20 3c 89 70 b9 3d 39 ef a3 bc
       0.019454744 0.009796178 0.090546675 -0.020011531
0001c0 d4 da 65 3c 32 97 fd bc b6 db c5 3c a7 62 0a 3d
       0.0140292235 -0.030955885 0.024152618 0.03378549
0001d0 b0 5b b0 3c 7e 6e 0d bd 47 bf 97 bc f3 15 95 b9
       0.021528095 -0.0345292 -0.018523825 -0.00028435848
0001e0 76 66 c9 3c e5 11 98 bc 19 6b 32 bb fc 8a ce 3b
       0.02458499 -0.01856322 -0.002722448 0.0063031893
0001f0 f6 33 13 3c a5 7c a1 bc 3b 42 00 3e 44 e2 d5 bd
       0.008984556 -0.019712755 0.12525265 -0.10443547
000200 19 b8 5e bc df c0 35 3c 79 27 eb 3c c0 33 90 3c
       -0.013593697 0.011093347 0.028705345 0.017602801
000210 15 17 0c 3f 9b 60 c3 3c 2e a7 3d bc d4 22 c6 bc
       0.5472272 0.023849776 -0.011575503 -0.02418653
000220 3d 9e 9f 3b 78 31 22 bd 5d d2 df 3c ee 3b b6 3c
       0.0048711584 -0.03959796 0.027321989 0.022245374
000230 fb 9b 14 bd 76 fc 8c bb 24 8f bd 3b ae ff 98 be
       -0.036281567 -0.0043025566 0.005784886 -0.29882568
000240 ad 38 ba 3c ec 2a 81 3c ff 24 ae bb 23 1a 13 3b
       0.022732103 0.015767537 -0.005314469 0.0022445999
000250 cb b8 13 be 50 8a 84 bc d0 65 81 bb 9d a0 c5 3c
       -0.14425962 -0.016179234 -0.0039489046 0.024124438
000260 bd d4 3a 3c 30 16 05 be aa 55 16 3e 22 32 94 bc
       0.01140326 -0.12996745 0.14681116 -0.018090311
000270 3e 66 41 3d 82 02 6e bc 3c 21 a4 bd 05 ce 51 3d
       0.047216646 -0.014526965 -0.080141515 0.051221866
000280 73 24 26 3e 66 21 76 be 8a 33 17 3c 8e 20 c2 bc
       0.16224842 -0.24036178 0.009228596 -0.023697164
000290 5c 7b c6 bc ea d6 80 bd a8 51 0e 3c a3 52 9f bd
       -0.024228744 -0.062909916 0.008686461 -0.077794336
0002a0 d0 ce 9f bc d2 99 16 bd 64 45 36 3c b5 75 dc 3e
       -0.019507796 -0.03676779 0.011124942 0.43058553
0002b0 be 7d d7 3b ac 6a 2a 3c a9 19 96 3c 0a a7 3d bb
       0.006576269 0.010401409 0.018322783 -0.0028938674
0002c0 68 f8 1b bd 6f b9 4b 3b ef ab 16 be 98 2e f4 3c
       -0.038078696 0.0031085869 -0.14714025 0.029807374
0002d0 43 f3 dd bc 5b 8e 38 3d 78 d6 1f ba 51 11 49 3b
       -0.027093535 0.045057636 -0.0006097327 0.0030680487
0002e0 11 57 0d be 41 2e c0 3c ad cd af bc 5c cd 7d 3c
       -0.13802744 0.023459556 -0.021460379 0.015490856
0002f0 cb 66 e9 bc 7b 4c 77 bc bc 11 02 3c 17 d4 d2 bb
       -0.028491398 -0.015093918 0.0079387985 -0.0064339745
000300 d0 6c d1 3c 56 f5 14 bc cb 31 d0 3c 19 52 c1 bb
       0.025564581 -0.009091696 0.025414368 -0.0058996794
000310 34 fd 22 3c 78 03 d6 3b f0 b8 72 bc ea 5f 37 bb
       0.009948064 0.006531175 -0.0148146 -0.0027980753
000320 9f b6 db bb c1 7d 40 ba aa ac 46 bc 2a 03 28 3c
       -0.0067051197 -0.00073429575 -0.012126127 0.010254661
000330 5f 53 05 bc b0 ab 56 bc 2c 14 82 bb d0 04 03 3d
       -0.008137553 -0.013102457 -0.00396969 0.03198701
000340 e0 d5 13 3d fb 2b c7 3a 48 89 28 bd 0e b6 07 bc
       0.03609264 0.0015195602 -0.041146547 -0.008283151
000350 99 ef 81 3c ad 97 a4 3b f9 2d 0f 3c f1 37 2c bc
       0.01586132 0.005022964 0.008738988 -0.010511384
000360 40 a3 a9 3d bb b6 33 bc ea 39 3e 3c d5 d0 25 bd
       0.082830906 -0.010968859 0.0116104875 -0.04048236
000370 b0 a7 95 3d d5 f8 0a bc c2 57 03 bd 98 80 07 bc
       0.073073745 -0.008482178 -0.032066114 -0.008270405
000380 af 36 f5 3e 06 fc 3c bb fe 82 ef bc 3b f1 19 3d
       0.47893283 -0.002883674 -0.029237267 0.03758357
000390 6c e3 1f 3c b5 59 e4 ba 58 8c cb bb 21 e7 5f be
       0.009758811 -0.0017421754 -0.0062117986 -0.21865512
0003a0 e3 f8 e1 bb 81 06 25 bc 9a 9f ab 3c a6 12 ca bc
       -0.0068961247 -0.010072351 0.020950127 -0.024667095
0003b0 11 7a 33 bc 7f 8e ab 3c aa df 65 bb 50 c5 2a bb
       -0.010954396 0.02094197 -0.003507594 -0.0026057549
0003c0 57 ca 40 bc 26 76 2f bc cd 82 7f 3c 00 c9 b5 3a
       -0.011766992 -0.010709321 0.01559515 0.0013869107
0003d0 97 f3 95 3b 31 18 8f bc e5 e5 c9 3b 67 8b 18 bb
       0.0045761573 -0.01746759 0.0061614388 -0.002327645
0003e0 2e da 75 bb 9e f4 e1 3c 19 62 74 bc 3a d7 2a 3c
       -0.0037514078 0.027582463 -0.014915966 0.010427291
0003f0 8d 18 7e 3c 5c 43 90 3d 82 3d 5a 3b 3c 22 77 3e
       0.015508783 0.07044098 0.0033300822 0.24134153

embedding.weight f4 [64, 3]
000000 18 1f ca be 82 71 c9 be b4 d9 a1 3e 60 29 cb be
       -0.39476848 -0.39344412 0.31611407 -0.39680004
000010 2d 5c e5 be 2b bf 57 3a 2b af c4 3e 7a 31 14 bf
       -0.44796887 0.00082300854 0.38414893 -0.57887995
000020 b7 79 1d 3e 92 d7 ac 3e cc bb eb be b3 60 bf 3d
       0.15378462 0.33758217 -0.46041715 0.09344616
000030 0a e5 12 3f ec 0c fd be 33 ae 9d 3e 2a 08 93 3e
       0.57380736 -0.4942392 0.30796966 0.28717166
000040 22 e3 ee be 5c c1 3a 3e 7c 89 07 3f f9 c3 32 3e
       -0.46657664 0.18237823 0.5294416 0.1745757
000050 0e 5f e2 be 92 ee 38 bd c8 25 f9 3e 50 86 cd be
       -0.44213146 -0.045149393 0.48661637 -0.40141535
000060 2b 38 89 be 53 54 8b 3e 77 7f 29 bf bc 8b d3 be
       -0.26800665 0.27212772 -0.6621012 -0.41317546
000070 82 8a 10 3f 5b 4b b2 be 55 15 38 bc 34 68 a0 3e
       0.56461346 -0.34823117 -0.011235555 0.313295
000080 fb ac 9d 3e 5b 66 0f bf 9f 83 a1 3e 6a 47 c0 3d
       0.30796036 -0.5601556 0.3154573 0.09388621
000090 0f e1 a6 3e 2a dd 59 be b2 ec 62 3d ca b0 0b 3f
       0.3259358 -0.21275774 0.05540151 0.54566634
0000a0 04 80 82 be da fd b0 bd 9e 7d 10 3e 0a 11 bd be
       -0.25488293 -0.08642168 0.14110419 -0.36927062
0000b0 95 38 e4 3e bb 8e 79 be 89 39 cb be 04 e0 e6 3e
       0.4457442 -0.24370854 -0.39692333 0.45092785
0000c0 b6 16 5f 3e 8b 93 fc bd bf 0d ae 3e 1c 7c 76 be
       0.21786007 -0.12332829 0.33994862 -0.24070781
0000d0 32 7d c1 3e a6 0f c0 bd e9 14 5d be 73 d3 13 3f
       0.3779083 -0.09377985 -0.21590008 0.5774452
0000e0 b9 3d d8 bd 70 d4 58 be 46 d4 1b bf e5 e4 ca 3d
       -0.10558648 -0.21174788 -0.6087078 0.099069394
0000f0 33 a6 78 bd 77 53 e7 be 32 8d de 3d 32 79 c0 bd
       -0.060705375 -0.45180866 0.108667746 -0.09398116
000100 0b 30 13 3f cf 8c 2c bd d8 d7 9a 3e 0c 6c 28 3e
       0.5749518 -0.042126473 0.302428 0.16447467
000110 94 0b 35 3e 77 94 6c 3e 22 01 15 bf 13 af b3 3d
       0.17680198 0.2310351 -0.58204854 0.08773627
000120 3c d8 b0 3e 72 ee a5 3e 18 05 9f be 38 63 08 3f
       0.34539974 0.32408482 -0.31058574 0.53276396
000130 6a f5 fd 3e 95 75 a2 be 9b 96 dd be be 69 93 be
       0.496013 -0.31730333 -0.43278965 -0.28791612
000140 c1 29 a3 3e 56 15 0f 3f e4 76 fa 3e b8 c0 e5 be
       0.31867793 0.5589193 0.4891883 -0.44873595
000150 39 64 6c 3d 39 45 e9 3e 8d bd ca be 63 d3 46 3e
       0.057712767 0.45560625 -0.3959774 0.19416575
000160 20 6a 86 be 28 c7 29 bd f8 99 44 3e f0 6e 0d be
       -0.26252842 -0.041449696 0.1919936 -0.1381185
000170 e3 2d e7 3d 8f 24 79 3e 0e 58 e2 3e af e6 ba be
       0.11288049 0.24330352 0.44207805 -0.36504123
000180 48 58 47 be 13 e4 1d bf b0 8f 40 3d fd b5 72 3e
       -0.1946727 -0.6167614 0.04701203 0.23702236
000190 69 81 12 be e5 3a c1 3e 57 d8 7a 3d 82 6d af 3e
       -0.14307179 0.37740245 0.061241474 0.34263235
0001a0 23 f8 4a bd 41 c4 86 be 6c 92 a0 be 76 7b 49 3e
       -0.049553048 -0.26321605 -0.3136171 0.19676003
0001b0 8d da 62 be 95 96 21 3f f2 3a 5c be 63 a5 26 3e
       -0.22153683 0.63120395 -0.21506861 0.16274028
0001c0 96 77 0f bf 98 4c 5b be d6 b6 ae 3e 7b e5 52 3e
       -0.5604185 -0.21415937 0.34123868 0.20595352
0001d0 9d 31 7b bd 75 07 d0 be 45 4d ef 3e 0e ab 35 be
       -0.06132661 -0.4063069 0.4673864 -0.17741033
0001e0 ba 66 ad be 17 7c aa bd d2 87 fb be 5d ff 9c 3e
       -0.33867437 -0.083244495 -0.4912706 0.30663577
0001f0 15 d9 a4 3d 5b 5d 9b be ea 6a e8 be 57 31 ca be
       0.080492176 -0.30344662 -0.4539407 -0.39490768
000200 b2 dd da 3e 1e 71 cc 3e 1a bf 93 bd 8f f3 00 bd
       0.42747265 0.39930052 -0.07214184 -0.031482276
000210 b8 e0 dc 3e 00 ee 82 be d0 e9 f4 bb 9d c4 ce be
       0.43140197 -0.25572205 -0.0074741617 -0.4038438
000220 17 c0 50 be 61 a7 85 3e 22 87 e6 be a0 97 5d 3c
       -0.20385776 0.26104262 -0.45024973 0.01352492
000230 78 37 4a be a4 2d 1f be bb 86 d7 3e 4a ba be be
       -0.19747722 -0.15544754 0.4209498 -0.37251502
000240 08 33 bc bd 9c c0 c1 be 36 73 bc 3d 47 ec be 3e
       -0.09189421 -0.37842262 0.09201662 0.3728964
000250 35 5e 12 3f 3c 11 e3 be 8e f4 a9 be 72 41 a9 be
       0.57175 -0.44349086 -0.33194393 -0.33057743
000260 d7 7b ea 3e 0e 09 eb be 0c 9d f7 bd c1 98 50 3e
       0.45797607 -0.45905346 -0.12090501 0.20370771
000270 5a 7e 36 be c6 56 da be 5a 43 ae 3e c8 dc cb 3c
       -0.17821637 -0.42644328 0.3403576 0.02488555
000280 98 4c 02 3f 70 a0 f5 be 94 cf 01 be a8 5d ad 3e
       0.5089812 -0.47973967 -0.12676841 0.33860517
000290 e6 4f 1a be 9a e3 4e 3e e8 b2 ba be 15 ca a6 3e
       -0.15069541 0.2020401 -0.3646462 0.3257605
0002a0 9c d2 8d be cc 6f 0d bf 2d a1 5e 3e 85 db e4 be
       -0.27699745 -0.55248713 0.21741171 -0.4469873
0002b0 eb 1a 40 3d 49 24 c8 3e 86 84 3a be 72 00 89 3e
       0.04690067 0.39090183 -0.18214616 0.26758152
0002c0 36 d6 a8 be 52 7a 76 3e 50 1b 08 be 04 88 07 3f
       -0.3297593 0.24070099 -0.13291669 0.5294192
0002d0 a8 13 17 be 39 20 a7 bd b7 37 e9 3e 0c 9e 5f 3e
       -0.14753592 -0.08160443 0.4555032 0.21837634
0002e0 48 01 ca 3e 2f ed 94 be 21 4e 1f 3f 01 49 da be
       0.39454103 -0.29087207 0.6222859 -0.42633823
0002f0 4d 69 dd 3e de ba ef 3e fc d5 e3 be 89 8b 80 3e
       0.432444 0.46822256 -0.44499195 0.25106457

embedding.bias f4 [64]
000000 37 cc 88 be 78 a6 03 3f 6a 70 0d 3e bb 11 8b 3e
       -0.26718304 0.51425886 0.13812414 0.27161965
000010 eb 82 e0 be c2 1c ce be 61 55 bf be 7f bc c4 be
       -0.43849882 -0.40256315 -0.37369826 -0.3842506
000020 0a 90 98 3d 84 d1 92 be 87 c4 a4 bd ab 05 28 3e
       0.07449348 -0.28675473 -0.08045297 0.16408412
000030 cd 73 f6 bd 65 de 6d bd 77 92 4b 3c 53 2b 86 be
       -0.12033806 -0.05807342 0.012425057 -0.2620493
000040 3c e8 f1 3d bc 19 3a 3d 3b d0 f6 be f3 83 02 3f
       0.11811873 0.0454347 -0.48205742 0.5098259
000050 2b 2d fb 3e fe 74 ae be ac 2e c6 be c9 eb b8 3e
       0.49057898 -0.34073633 -0.38707483 0.3611739
000060 19 41 82 be 6a d7 96 3d 1f 6f 87 3d 5e b1 b1 3e
       -0.2544029 0.07365306 0.066129915 0.34705633
000070 06 76 fd be 10 2b 91 3e cd c2 92 3e da 7d f1 be
       -0.49504107 0.28353167 0.28664246 -0.4716633
000080 07 94 b5 3e 8b 4b c2 3d 5f 45 88 be 71 d5 d1 3c
       0.35464498 0.09487065 -0.26615426 0.025614472
000090 89 4b 01 bf 3c 16 22 3e 0d d3 00 bd ad 1f 7e bd
       -0.5050588 0.15828794 -0.031451274 -0.062041927
0000a0 35 5a 4a 3e 34 cb 94 be bc 95 61 be db 8c 11 3e
       0.19760974 -0.29061282 -0.22029775 0.14213888
0000b0 98 65 e6 3e 48 ef 08 be 96 9b d5 3e 5e 67 c6 bd
       0.44999385 -0.13372529 0.41720265 -0.096876845
0000c0 27 1b da 3e 6b 2e 35 be ac be e9 3d 0a 87 de 3e
       0.4259884 -0.17693488 0.11413321 0.43462402
0000d0 d9 21 c2 bc 65 86 12 3e 0d ea 4f be 93 e1 a1 3e
       -0.02369778 0.1430908 -0.20304127 0.31617412
0000e0 e7 2d 0b 3f e5 23 b1 be 6b cd b1 3e eb 5e 15 be
       0.54366916 -0.34597698 0.34727034 -0.1458699
0000f0 eb ea 56 be 70 51 e5 be 0c ff b2 be e3 fa 71 be
       -0.20988052 -0.44788694 -0.3496021 -0.23630862

transformer.layers.0.self_attn.in_proj_weight f4 [192, 64]
000000 76 00 9d 3d ec 3f e7 bd eb b7 a3 be e4 a8 26 be
       0.076661035 -0.11291489 -0.31976256 -0.16275364
000010 08 0e f7 3b 1b 5d ff 3c 34 5f ba bd 90 98 01 3e
       0.0075395145 0.031172326 -0.0910019 0.12655854
000020 92 34 0e 3d f5 be 4c 3e 3a 3d 0d 3d e4 40 09 3e
       0.034718104 0.1999472 0.03448222 0.1340366
000030 9a 42 45 bd ee 0e 85 be 6c b5 b9 bc ad 2c 8e 3d
       -0.04815922 -0.25987953 -0.022669517 0.06942115
000040 5a bc ab bd 49 cb 87 3d fc f5 11 3e d2 a8 30 be
       -0.083855346 0.066305704 0.14253992 -0.172519
000050 08 d9 d2 bd 49 54 83 3e ed 84 39 3d 07 68 49 be
       -0.10295302 0.25650242 0.045292784 -0.1966859
000060 a2 2e 49 bd f7 72 95 bd 81 a3 47 3d 22 7c 9a bd
       -0.04911674 -0.072973184 0.048739914 -0.07543208
000070 49 19 cf 3d 1d 50 d7 bd 28 6b a5 bd 45 d1 d3 3d
       0.10112245 -0.10513327 -0.08077079 0.10342649
000080 3b b0 fc bd 34 a5 a1 bd f7 57 06 3e ac 1b 6d 3d
       -0.12338301 -0.07892838 0.13119493 0.057887718
000090 b2 bb 14 3e f9 22 23 be ab 7b 46 bd 4a 47 bc 3e
       0.14524725 -0.1593131 -0.048457783 0.3677314
0000a0 bc 95 c0 3c de 94 51 39 b4 14 99 3d e1 a8 db bd
       0.023508899 0.0001998725 0.07474652 -0.107255705
0000b0 3e 9a e2 bd 10 49 81 3d cb 9d a5 bc 4a 2a c3 3d
       -0.110645756 0.06312764 -0.020216843 0.095295504
0000c0 a6 24 ec bd 47 12 06 bd fc a2 3c 3d 47 59 f5 bc
       -0.11530428 -0.032732274 0.04605387 -0.029949797
0000d0 bc 99 16 3d d5 05 39 bd e4 40 25 3e aa 8a e8 bd
       0.036767706 -0.045171577 0.16138035 -0.11354573
0000e0 ae c5 1f be c9 74 c9 3d a2 9e 23 bd 26 8e e7 3c
       -0.15602753 0.09836728 -0.039946206 0.028266024
0000f0 e0 db 79 3d d7 3f b8 3d 49 7e 72 3b 33 82 b2 ba
       0.061000705 0.089965515 0.0037001541 -0.0013619125
000100 6b d2 08 be 39 1b 33 3e 65 13 cd 3e 6d 3e 4e 3e
       -0.13361518 0.17490853 0.4005386 0.20141001
000110 0b a6 92 bd ff 60 bd bd 71 9f 5c 3d 59 ef 32 be
       -0.071605764 -0.09247016 0.053862993 -0.17474116
000120 8c c6 af bb b3 f0 6f be 0e 05 18 bd 18 e1 d7 bd
       -0.005364245 -0.23431663 -0.037114196 -0.1054098
000130 21 4a 5b 3c dd ee 8f 3e 6b fe 9f bc 20 f4 f9 bd
       0.013384373 0.28111926 -0.019530496 -0.12204766
000140 00 9f e9 3d 24 e1 0a bd 99 b4 42 be 6e 1b 71 3e
       0.1140728 -0.033906117 -0.19014205 0.2354562
000150 fd dc 1f 3e 16 eb ab be 01 24 d5 bd 4a ed 74 3e
       0.15611644 -0.33577794 -0.10407258 0.23918644
000160 82 73 58 3d 3c 4e 03 3e ef 0f ac bd d2 ad 0b 3e
       0.05284453 0.12822813 -0.084014766 0.13640526
000170 bc 13 1d be ab 0a 1a 3e d0 ff 03 3e 85 0f 22 be
       -0.1533956 0.15043132 0.12890553 -0.15826233
000180 89 9c 47 3e ca 2c e9 3d 8d ea 47 be af 04 cd bd
       0.19493307 0.11385496 -0.19523068 -0.10010659
000190 6c 80 42 be be 65 44 3e 2f d9 a1 3d 04 b6 f0 be
       -0.18994302 0.19179437 0.079027526 -0.47013867
0001a0 d7 87 31 3d 20 82 2f bd 0d 1a 0c be c9 5d 14 3e
       0.043342438 -0.042848706 -0.13681813 0.14488901
0001b0 05 08 21 3e 8f 60 e5 bd a5 fc a5 3d 44 13 bc bd
       0.15725715 -0.11200058 0.08104829 -0.09183362
0001c0 05 3b 29 3e 04 0a 98 3d f4 e5 a0 bd 19 22 aa 3d
       0.1652642 0.07423785 -0.0785636 0.08307285
0001d0 fc 6d b2 bd 0a f1 c9 3d f1 85 52 be da ea 1f 3e
       -0.08712384 0.09860428 -0.20558907 0.15616933
0001e0 8b b4 61 3e 8a e2 1b be 08 07 c5 3d fb fb ac bd
       0.22041528 -0.15223137 0.09620482 -0.08446499
0001f0 24 08 e0 bd fb d7 11 be ce bd 89 bd 59 c1 5f bd
       -0.10939053 -0.14242546 -0.067256555 -0.05462775
000200 69 d3 ec 3d dc 20 33 be a7 55 cf be d0 2e 48 be
       0.11563761 -0.17493004 -0.40495035 -0.19549108
000210 25 b6 61 3d 98 cc b9 3d 03 4c 56 bd de be 2d 3e
       0.055105347 0.09072226 -0.052318584 0.16967341
000220 32 a6 f0 3b 1f 1e 6b 3e 79 00 2c 3d e5 d7 df 3d
       0.007344031 0.22960709 0.04199264 0.109298505
000230 19 a7 a3 bc 81 8f 8c be aa e6 59 3c 0d 2c e9 3d
       -0.01997714 -0.27453235 0.0132996235 0.11385355
000240 46 b5 db bd 0d 82 23 3d 30 a0 39 3e f1 b6 6e be
       -0.107279345 0.039918948 0.18127513 -0.23311974
000250 b9 f8 16 be fe e1 aa 3e 53 83 c5 3d 09 55 6f be
       -0.14743318 0.33375543 0.09644189 -0.23372282
000260 ae 07 39 bd 7b 45 d3 bd bb 99 9b 3d 61 9c 0d be
       -0.04517334 -0.10315987 0.07597681 -0.13829185
000270 2f 0a 16 3e f4 43 13 be b5 62 f7 bd 1f 60 1d 3e
       0.14652322 -0.14381391 -0.12079374 0.15368699
000280 d1 3f 51 be 99 45 db bd ea bd 46 3e bf d0 b8 3d
       -0.204345 -0.10706634 0.19408384 0.0902419
000290 7f 03 3b 3e fa d5 4b be e9 bf 91 bd b2 8f f1 3e
       0.18263052 -0.19905844 -0.07116682 0.47179943
0002a0 90 42 38 bd 6a 9e 20 3d 0d 85 04 3e 02 ba 0a be
       -0.044985354 0.039213575 0.1294138 -0.13547519
0002b0 e2 89 09 be ee 6d c9 3d 96 db 93 bd 37 b5 c7 3d
       -0.13431504 0.098354205 -0.07219617 0.09751361
0002c0 7c e3 23 be f0 0c 7e bd 5e 7f 92 3d fc 97 a2 bd
       -0.16004747 -0.062024057 0.071531996 -0.07939145
0002d0 f0 00 a0 3d 16 c1 be bd 91 ab 4e 3e d4 7a 18 be
       0.07812679 -0.09314172 0.20182635 -0.14890605
0002e0 4a fe 60 be 09 7b 0b 3e 85 2f a8 bd 37 12 9c 3d
       -0.21972004 0.13621153 -0.08212189 0.07620662
0002f0 df 8c ca 3d d3 fa 0c 3e 2a 08 56 3d be 50 44 3d
       0.0989015 0.13767557 0.05225388 0.047928564
000300 b6 ac bf bd 89 ee 09 3e 07 73 b4 3e 79 77 32 3e
       -0.09359114 0.134699 0.3524401 0.17428388
000310 0d c1 e0 bc cf ec 50 bd e0 e5 a1 3d bc f9 10 be
       -0.027435804 -0.05100709 0.07905173 -0.14157766
000320 cb bd d9 bc 12 d1 57 be 63 54 22 bd db b1 02 be
       -0.026579758 -0.21075848 -0.03963126 -0.12763159
000330 71 79 21 3d 70 2e 88 3e e4 9e 52 3c 37 a7 b1 bd
       0.039422456 0.2659793 0.012855265 -0.08674472
000340 f4 56 b8 3d b5 9c 73 bd 7d 7f 22 be b0 66 48 3e
       0.0900096 -0.05947562 -0.15868945 0.19570422
000350 d4 66 f6 3d 1c ad 92 be 0d e9 7f bd a1 4e 56 3e
       0.12031332 -0.28647697 -0.062478114 0.20928432
000360 37 9d 37 3d 0f 30 b7 3d df b4 6d bd 28 36 c5 3d
       0.044827666 0.08944713 -0.05803382 0.0962947
000370 68 8f f3 bd a4 cc f6 3d ad df c4 3d 5f 28 f9 bd
       -0.11892587 0.12050751 0.09612975 -0.12165903
000380 d5 e4 1c 3e a5 b5 b3 3d ef 66 1d be 56 d2 8e bd
       0.15321667 0.0877488 -0.15371297 -0.06973712
000390 7f 17 24 be 59 35 33 3e 22 3e 5f 3d 40 27 d1 be
       -0.16024588 0.1750082 0.054502614 -0.40850258
0003a0 8c 3f ef ba 20 e1 35 bc 55 ed bd bd ef 4e ef 3d
       -0.0018253191 -0.011101037 -0.09273783 0.11684977
0003b0 68 e2 02 3e d3 43 9f bd 6d 31 1f 3d 23 63 c9 bd
       0.1278168 -0.07776608 0.038865495 -0.09833362
0003c0 27 8e 06 3e 53 7a 2f 3d 10 49 5a bd 1d 9c 43 3d
       0.13140164 0.042841267 -0.053292334 0.047756303
0003d0 80 f2 4a bd 6f a6 7e 3d 54 80 34 be 66 c6 02 3e
       -0.049547672 0.062170442 -0.17627078 0.12770995
0003e0 78 d3 37 3e ac fa ec bd 24 3f 6d 3d 51 42 3b bd
       0.17951763 -0.11571249 0.057921544 -0.04571754
0003f0 e0 90 9b bd 11 21 da bd 82 da c4 bc 22 a1 70 bc
       -0.07595992 -0.10650838 -0.024029974 -0.014686855

transformer.layers.0.self_attn.in_proj_bias f4 [192]
000000 bf 36 ad bd 15 4c 16 3e ae ff 09 be db e6 db 3d
       -0.084577076 0.1467746 -0.1347644 0.107373916
000010 96 5d cd bd 48 a9 be 3d 5c 81 ce 3d 38 02 06 bc
       -0.10027616 0.093096316 0.10083267 -0.00817924
000020 36 1b e8 3d eb 1c eb bd 9a dd f2 3d 3f c4 c1 3b
       0.11333315 -0.11480125 0.118586734 0.005913287
000030 b4 1e a5 bd e1 87 ac bd 78 f7 11 be 15 56 fb bd
       -0.08062497 -0.08424354 -0.14254558 -0.12272278
000040 b8 6b 1f be 1b d1 29 be fa c8 27 be 59 9c bf bc
       -0.15568435 -0.16583674 -0.1638526 -0.023389982
000050 21 09 32 3e 14 1b 00 3e 74 a9 02 be 7a e4 2e be
       0.17386295 0.1251033 -0.12759954 -0.17079344
000060 5a 1e fd bd 12 d1 33 3e cb d6 20 3e 6e d3 2c be
       -0.12359305 0.17560223 0.15706937 -0.16877529
000070 9b 8b d8 3d f6 f6 c0 bd f2 a2 39 be f3 07 2d 3e
       0.10573503 -0.09422104 -0.18128565 0.16897564
000080 10 1e 0c 3e 5c ee 20 3e 56 52 1f be fb 78 e7 bd
       0.13683343 0.15715927 -0.15558752 -0.11302372
000090 1a 7a ea bd 74 26 c4 3c d7 80 2b 3e 65 0d 5d bd
       -0.1144907 0.023944117 0.16748367 -0.053967852
0000a0 31 e6 00 3e 19 31 0d be e3 87 1c 3e b8 c4 31 be
       0.12587811 -0.1378826 0.15286212 -0.17360198
0000b0 39 e4 11 3e a0 4e 3e 3e 37 ce 25 be 28 db 1b be
       0.14247216 0.1858468 -0.16191946 -0.1522032
0000c0 05 c2 07 be 12 39 2b 3e 8f 5c ae 3d 13 50 d9 3d
       -0.13257606 0.1672099 0.08513748 0.10610976
0000d0 38 e7 eb 3d c4 70 9b bd fb 54 03 3e 80 5c 30 be
       0.11518711 -0.07589868 0.12825386 -0.17222786
0000e0 87 1f 86 bd 99 bb 72 3d 87 ea 24 3e 95 58 09 3e
       -0.06548982 0.05926094 0.1610509 0.13412698
0000f0 62 ee 30 3e d4 d2 01 3e 4a 3e 10 be 2d eb ad 3b
       0.17278436 0.12678081 -0.14086261 0.005307576
000100 24 23 7c b8 81 cd c6 b8 30 7c 5a b8 f6 18 1d b9
       -6.011421e-05 -9.479654e-05 -5.209091e-05 -0.00014981985
000110 38 df b2 38 94 94 ec b8 40 bb cb b8 7d 41 df b4
       8.529279e-05 -0.00011281032 -9.714672e-05 -4.1584636e-07
000120 3f 96 c8 b8 04 fa 2b b8 ea d0 33 b9 36 31 7f b7
       -9.564729e-05 -4.1002422e-05 -0.00017148597 -1.5210642e-05
000130 0e df 9a 37 a6 a1 10 b8 2b 94 d9 38 73 a4 5d 39
       1.8462099e-05 -3.4482822e-05 0.00010374965 0.00021137465
000140 64 6b 97 36 13 16 b7 36 fe 9d c9 36 b5 02 68 34
       4.5126526e-06 5.456395e-06 6.0086595e-06 2.1607669e-07
000150 dd 39 a1 b6 a1 72 6f b6 55 9c 24 36 3d a3 96 36
       -4.80491e-06 -3.5680498e-06 2.4528902e-06 4.489352e-06
000160 5e c6 51 36 b2 c1 a1 b6 ec 70 99 b6 65 49 99 36
       3.1258892e-06 -4.820723e-06 -4.572901e-06 4.5682996e-06
000170 d6 81 0c b6 fd 51 e8 34 34 02 8f 36 5f e7 af b6
       -2.09372e-06 4.3273022e-07 4.2619886e-06 -5.2423416e-06
000180 02 dd ac b5 56 eb 9d b5 6c 44 eb 35 7e e1 cb 34
       -1.287932e-06 -1.1765903e-06 1.7528778e-06 3.7975764e-07
000190 cc 74 69 b5 bd c0 21 32 1b a3 26 b5 7b e2 ff 33
       -8.6969226e-07 9.415257e-09 -6.207717e-07 1.19155594e-07
0001a0 31 fc d3 b1 ba 41 08 35 a6 94 3e b4 71 e2 cf 35
       -6.169579e-09 5.075959e-07 -1.7749207e-07 1.5488605e-06
0001b0 a5 aa 71 b5 b0 93 13 b5 fb 4e ab 34 4a 5f 13 36
       -9.0027817e-07 -5.497668e-07 3.1908698e-07 2.1960172e-06
0001c0 41 e5 5b b9 e3 84 47 39 18 ce 13 39 72 10 0a 39
       -0.00020970871 0.00019027623 0.00014095788 0.00013166832
0001d0 67 5f 27 39 4f 2c 85 37 a0 d9 34 39 75 97 92 b9
       0.00015961901 1.5875468e-05 0.0001724721 -0.00027960134
0001e0 20 17 97 38 91 c7 20 b9 f0 0c a8 38 b7 ee 75 39
       7.2045485e-05 -0.00015333133 8.013274e-05 0.00023453949
0001f0 97 5a 1f 39 c3 32 4e 39 2d 8c 82 b9 99 54 4f 38
       0.00015197169 0.00019664601 -0.0002489997 4.9431434e-05
000200 bb f4 1c 3c ab d5 af 3c a2 7f 67 bb ab 98 df 3c
       0.009579833 0.02146419 -0.0035323878 0.027294477
000210 66 11 0f bd 94 fa cc 3c 95 1d 8c bc b6 8a b6 3a
       -0.0349287 0.025021829 -0.01710395 0.0013926837
000220 52 ca 89 3c 4b aa 2a 3d 9b c1 94 3c da 06 e3 bc
       0.016820107 0.04166631 0.018158725 -0.027713228
000230 40 df 03 bc c4 45 62 3a 72 a4 9d 3c 87 b5 93 bb
       -0.008048832 0.00086316117 0.019243453 -0.0045077237
000240 ce 89 ad 3b eb 7d 3d bd ed 4e ac 3c 76 f8 91 3b
       0.0052959686 -0.046262663 0.021033728 0.0044546677
000250 f7 4d f4 ba 39 51 84 3b 6d 03 ff 3c d6 6d 18 bd
       -0.0018638958 0.004038003 0.031129563 -0.037214123
000260 05 26 df 3c 42 0f 99 3c d4 ec 0c 3d cb 1b be bc
       0.027239809 0.018684033 0.034405544 -0.023206612
000270 77 e4 1c 3d f0 ca eb 3a 05 50 2f bc 26 b3 a3 bc
       0.03830382 0.0017989557 -0.0107002305 -0.019982886
000280 35 33 5e bc fb 4d 0d 3d 39 a4 c0 bc b0 70 78 bc
       -0.013562013 0.034498196 -0.023515807 -0.015163586
000290 8b 2d a2 3c 15 22 2f bd b1 6f 93 ba a6 92 2b bb
       0.019797107 -0.042757113 -0.0011248497 -0.0026179939
0002a0 96 7d cb bb 00 ed e4 3c 89 1c e3 bb a4 2c 7a 3c
       -0.0062100394 0.027945042 -0.006930892 0.015269432
0002b0 06 90 de 3c 39 c3 ee bb 4c dd 96 3c bc ea d0 bb
       0.027168285 -0.007286456 0.01841607 -0.006375639
0002c0 9f 05 2a bc db 1b ec 3c c1 f1 b3 bb 1d 51 16 b9
       -0.010377317 0.028821876 -0.005491466 -0.00014335332
0002d0 3a 63 3b 3c a0 2b 59 3a b8 fb 0b bc f5 3f 06 3d
       0.011437232 0.00082843937 -0.008543901 0.032775838
0002e0 08 46 0e 3c 38 42 95 ba dd 01 bf bc 58 b0 12 3c
       0.008683689 -0.0011387533 -0.023316318 0.008953176
0002f0 e7 1a aa 3a 48 86 ce 3c 1d a0 bf 3c b5 a4 17 bc
       0.0012977988 0.025210515 0.023391778 -0.009255578

transformer.layers.0.self_attn.out_proj.weight f4 [64, 64]
000000 e9 ce 96 bb 17 ba ad bd 66 8c ab bc ec 1b a2 bd
       -0.0046023023 -0.084827594 -0.02094097 -0.07915482
000010 e6 0e e4 3d 02 63 a6 bd c7 12 01 3c b5 46 a7 3d
       0.11135654 -0.08124353 0.007878012 0.08167783
000020 58 c0 8d 3c 75 6f 02 be 9e 15 22 bd d4 0b 12 3e
       0.01730363 -0.1273783 -0.039571397 0.14262325
000030 d8 0a e2 bc 0a b7 40 bd c5 58 d3 bb c0 63 da bc
       -0.027593061 -0.04704956 -0.006449791 -0.026658893
000040 2d 38 50 3d e4 ba 07 ba fb 20 6f bd 69 8b c2 bd
       0.050834823 -0.000517769 -0.058381062 -0.094992466
000050 75 d4 91 3c 17 3c 82 3d 35 b3 0a be 84 d5 e4 bb
       0.017801503 0.063591175 -0.13544925 -0.006983461
000060 79 e3 4e bd f6 31 00 bd 6d 93 3b bd 89 d9 b5 bc
       -0.050509904 -0.031297646 -0.045794893 -0.022198455
000070 2a 92 f9 bc 6c fb fb bc 49 43 66 3c d3 1e a5 bd
       -0.030465204 -0.030759536 0.014054128 -0.0806252
000080 87 a4 13 bd d4 0e 1b bd 97 4a 25 bd 85 ba 6b bd
       -0.036045577 -0.037855938 -0.040354338 -0.057550926
000090 35 21 33 bd 2c 2e 0a 3e 51 61 6c 3b 62 c3 82 bd
       -0.04373284 0.13494176 0.0036068747 -0.063849226
0000a0 df 0c 9d 3d 9a 17 70 3d d7 76 14 3d 94 40 8b 3d
       0.076684706 0.05861626 0.036246147 0.06799427
0000b0 17 6a 9e 3d 64 69 8b bc 06 90 6d bd 4e e1 ac bd
       0.07735079 -0.017018028 -0.05799868 -0.08441411
0000c0 54 91 f9 3a c8 dc 57 be b8 cb e4 3d 64 91 72 3d
       0.0019040504 -0.21080315 0.11171669 0.059220687
0000d0 66 a4 8b bc 61 9e cc 3d b3 8d f4 3d f0 a3 e4 bd
       -0.017046165 0.09991146 0.119410895 -0.11164081
0000e0 7f 84 e6 bd c8 0c 7c bd 02 9e 17 3e 2d 9b 93 3d
       -0.112557404 -0.061535627 0.14806369 0.07207332
0000f0 8e dc a2 3d c0 9a 5f be 50 48 e6 bd c1 33 0b be
       0.07952224 -0.21836376 -0.11244261 -0.13593961
000100 71 94 af 3d a5 24 2b ba 94 22 4f 3c 49 b4 04 3b
       0.08573235 -0.0006528593 0.012642521 0.002024906
000110 7f 1c 67 bd eb 53 b4 bc 21 88 50 bd 49 87 6e 3d
       -0.05642366 -0.022012671 -0.050911073 0.058234487
000120 78 6a fb 3b 9d 12 3a 3d 6f 16 1c bd 9b 53 db 3c
       0.007672604 0.045427907 -0.03810733 0.026773265
000130 36 52 13 3c c6 99 cb bb 03 57 f2 3c ab d0 43 bb
       0.008991769 -0.0062133996 0.029582506 -0.0029879014
000140 c9 33 c2 3c f5 f6 68 ba 79 d1 cd bc 39 fd 8d bd
       0.023706334 -0.0008886897 -0.025124298 -0.06933064
000150 bb f5 be 3c 11 72 0f bd d2 a7 63 3d 24 aa b7 3d
       0.023310533 -0.03502089 0.055579968 0.089679986
000160 0d b5 f8 bc 85 b3 6b bd 13 48 60 3d 62 04 25 3d
       -0.03035977 -0.05754425 0.054756235 0.040287383
000170 e0 de 72 bd 1b 3e 0b bd 4d c2 c6 3c 26 1b 11 3d
       -0.05929458 -0.033994775 0.024262572 0.03542628
000180 d4 70 9c 3c f8 5c b1 bd e2 e8 2d bc 84 6d 58 bc
       0.01909677 -0.086603105 -0.010614606 -0.013209704
000190 56 84 e2 3b b3 b8 3f bd 65 21 81 bc 9f af 41 3d
       0.0069127483 -0.046807002 -0.015762994 0.047286626
0001a0 ca e7 35 bd 94 b3 5e bd ca 7c 67 bb 43 7a 16 bd
       -0.044410504 -0.054370478 -0.0035322183 -0.03673769
0001b0 28 4b 0b bc ad ff 4b 3a 76 1a ad bc be b9 1d 3d
       -0.008501805 0.0007781934 -0.021130782 0.038507216
0001c0 34 7b 08 bc 0f d2 b6 3c 01 ef 08 bd bd 59 74 3c
       -0.008330155 0.02231696 -0.033431057 0.014913973
0001d0 03 9a 1f bc 13 ed 87 bb c9 1d 80 bd 4e 09 e6 3b
       -0.009741309 -0.0041481345 -0.06255681 0.007020152
0001e0 0c 5f 33 3b b2 17 0e bd b2 0c b6 bc f1 c6 12 3d
       0.0027369885 -0.034690566 -0.02222285 0.035834257
0001f0 23 df 0e 3d 5b 5f 82 3d da 9b a5 3d 0f aa 23 bd
       0.03488077 0.06365844 0.08086367 -0.039957102
000200 78 87 92 3d 95 37 88 bb e6 1f 91 bd ab f3 e9 3c
       0.07154745 -0.0041570165 -0.07086162 0.028558573
000210 20 33 e3 3d ba 9e 5b bd 56 36 86 3d b7 d5 9f 3d
       0.11093736 -0.05361817 0.065533325 0.07804435
000220 dc 26 20 3d 36 e8 81 bd 5c 72 aa bc 17 49 cb 3d
       0.03909956 -0.06343119 -0.020806484 0.0992605
000230 4d bf 42 bd 1a 3f ba 3c 7b b7 d9 ba bf b1 e1 bb
       -0.04754572 0.022735167 -0.0016610468 -0.006887644
000240 2b 7b 25 bd c6 95 7f bc b3 3e 1c 3d aa 16 b9 3c
       -0.040400665 -0.015599674 0.038145732 0.022593815
000250 1d 6f 94 bd 2c 5e 72 3c 49 a8 05 b8 bd bf dc bc
       -0.07247756 0.01479296 -3.18664e-05 -0.026946897
000260 fc 75 8b bd 4f bb 92 bd 33 fb 2b 3d c6 a0 93 3a
       -0.06809613 -0.071646325 0.04198761 0.0011263124
000270 cc 09 ae bc 1c 86 21 bd 5e da f9 bc 2e 34 d9 3d
       -0.021244906 -0.039434537 -0.030499633 0.106056556
000280 ad 5b 0e bd 48 6c cb bc fd 89 55 bb 2e e9 3d 3a
       -0.034755398 -0.024831906 -0.0032583468 0.00072445243
000290 07 79 b7 bc d9 8e c0 3c 54 cb 75 3b fb df 76 bd
       -0.022396578 0.023505615 0.0037505226 -0.0602722
0002a0 d0 e2 3a bd ec e3 f0 bc 9c 39 57 bd 5f 5d a4 bd
       -0.04562646 -0.029405557 -0.052545175 -0.080256216
0002b0 ca db 75 bc 65 51 29 bd 1c fb 12 bc 17 ba 76 3c
       -0.015006015 -0.04133739 -0.008971002 0.015059016
0002c0 d3 66 ba bb c7 3b 2b be aa aa 30 3d dc ef 5e bd
       -0.005688527 -0.16722022 0.043131508 -0.054427966
0002d0 56 d7 0b 3d 92 16 98 bd cd ee a0 bc a6 55 c6 bd
       0.034140907 -0.0742618 -0.01964512 -0.09684305
0002e0 22 c0 bc 3d 38 92 84 bd 25 b2 8b 3d c1 b8 9a 3b
       0.09216334 -0.064732015 0.06821088 0.0047217314
0002f0 31 62 ba bc 02 23 00 be ee a7 f9 3c 7e e4 29 bd
       -0.0227519 -0.12513354 0.030475583 -0.041477673
000300 71 61 64 3c 78 3f 0b 3d 87 54 fe ba ce 26 9f 3c
       0.0139392475 0.033996075 -0.0019403853 0.019427683
000310 f8 a3 99 bb 2e 1e 81 3c 68 1b 37 3d 4c 99 7c 3d
       -0.004688736 0.015761461 0.04470387 0.061669633
000320 9b ec 9e ba 79 10 61 3d 0c fa 07 bc 6f 49 8f 3d
       -0.0012124957 0.05494735 -0.008299362 0.06996428
000330 12 0e 99 3a 57 63 41 3c d5 ff 26 3d 13 82 5a 3b
       0.0011677167 0.01180347 0.040771324 0.003334169
000340 6c 83 93 3c 7c 6b da bc 94 20 4a bb 70 3a 8c 3d
       0.018007003 -0.02666258 -0.0030842172 0.068470836
000350 06 6a 94 bd 56 11 3b bb ab 0d 60 3d 20 13 d6 bc
       -0.07246785 -0.0028544269 0.054700535 -0.026132166
000360 58 42 44 b9 4f ac 0c bc 52 e9 16 3d a5 bc 2e 3b
       -0.00018716732 -0.008586003 0.036843605 0.0026662734
000370 11 07 7d 3a 34 95 11 3d 2e f8 ea 3a e0 c6 95 3d
       0.0009652237 0.03554268 0.0017926747 0.07313323
000380 21 01 e9 3c cd 2f 77 bc a1 7c 0a 3d 17 71 17 3d
       0.028442921 -0.01508708 0.03381026 0.036973085
000390 9b 4d 76 bc 6f 61 6b bd 43 c2 34 3d ba 5b 55 bd
       -0.015033151 -0.057465967 0.044130575 -0.05208943
0003a0 2f f7 a0 bd dd df 42 3c 04 bc d6 bc c9 b7 05 3d
       -0.078596465 0.0118941935 -0.0262127 0.032645974
0003b0 15 da 1d bd 62 ba 1f 3c 19 0f 12 bc 26 0c 52 3d
       -0.038538057 0.009749027 -0.008914732 0.051281117
0003c0 16 d1 b6 bc 61 7f 64 3c d3 d9 4d 3d e1 2d b2 bc
       -0.022316497 0.013946385 0.05025656 -0.021750392
0003d0 17 14 a6 3c 2a df 82 bd f4 b3 d4 3c f2 b3 b4 bd
       0.020273251 -0.063902214 0.025964715 -0.08823384
0003e0 eb cf f0 bc 55 9c 6b bd b3 bd 0a bd 5e 20 ab 3c
       -0.029396018 -0.057522137 -0.033872318 0.020889457
0003f0 b5 f5 12 bd 0c 02 0a 3d 60 fc ae 3c ca 70 8b bd
       -0.035878856 0.03369336 0.021360576 -0.06808622

transformer.layers.0.self_attn.out_proj.bias f4 [64]
000000 0a d1 6d 3d 5e 12 7a bb ac 7b 91 bc f1 cd 55 bc
       0.058060683 -0.003815792 -0.017759167 -0.013049589
000010 1e 9c d9 3d 0f 0a c7 3d 15 ac 1b 3c b4 1b 3b 3c
       0.1062548 0.097187154 0.009501477 0.011420179
000020 90 f5 7e ba 2e bb 47 3c 58 12 d2 3c cf 64 58 bd
       -0.0009725923 0.012190623 0.025643513 -0.052830514
000030 1f 9b 89 3c fb e5 e2 3c ef 2d 4e 3c 63 bc 35 3d
       0.0167976 0.027697554 0.012584194 0.044369113
000040 cb 4c 8d bc a9 2e 8b bd 2e 41 48 bc 39 f3 0e ba
       -0.017248532 -0.06796009 -0.012222571 -0.0005453113
000050 28 19 96 bc ba 2a 26 bd 9a 2a 86 3d a3 bf 93 bb
       -0.018322542 -0.04056809 0.06551094 -0.004508929
000060 a7 ce 16 bc 2f 74 fa bc 63 52 19 3d 79 f5 04 be
       -0.009204543 -0.030572979 0.037432086 -0.12984265
000070 b4 10 4a 3d 0a 28 65 bb 06 1f 18 bd 1a f8 53 bc
       0.049332336 -0.0034966492 -0.03713896 -0.01293757
000080 ed 81 54 3c 06 c7 a4 bc 44 d3 5b bc 06 56 0a 3c
       0.01297043 -0.020114433 -0.013417069 0.008443361
000090 e2 0f b8 3b 72 22 a8 3c 4a aa 45 bd 2a 64 6c bc
       0.0056171278 0.020524237 -0.048258103 -0.014428178
0000a0 46 81 45 bc 5f 43 b5 3c cb 38 10 3e 1b 2a 19 bd
       -0.012054747 0.022126852 0.14084165 -0.03739367
0000b0 7d 2a df bd e8 36 17 3d 02 3c 5e bd 67 73 d0 39
       -0.10896776 0.036917597 -0.054256447 0.00039758833
0000c0 cf 06 0d bd 1c 86 95 bd 38 b6 0b 3d c6 54 32 3c
       -0.03443032 -0.0730097 0.034109324 0.010884469
0000d0 4c 48 e7 3d 9a ed 74 bd c1 9e aa 3c b2 c6 01 bc
       0.112930864 -0.059796907 0.020827653 -0.007920908
0000e0 48 e0 af 3c 2d bd 33 3d 09 f7 81 bd 18 a6 43 3c
       0.02146925 0.043881584 -0.06345946 0.011941455
0000f0 e9 2d 05 3d b0 f6 5f bc af 03 30 3d 7b ec 19 3d
       0.032514486 -0.013669655 0.042972263 0.03757904

transformer.layers.0.linear1.weight f4 [128, 64]
000000 bc 68 fa 3b bb ab dd b9 67 c8 16 bb ec ee 0c bb
       0.00764188 -0.00042280354 -0.0023007633 -0.0021504713
000010 5c 98 4a 3b 3f b5 ec 3b 9c 1d a4 38 5e 60 b0 3a
       0.0030913567 0.0072237547 7.8256446e-05 0.0013456454
000020 e4 2a 2b 3a d6 f6 47 3b 24 6a f2 b8 2a ba 03 bb
       0.00065295235 0.0030512116 -0.000115592295 -0.0020099976
000030 c5 77 2a b9 77 4f 18 ba 0d da 00 38 6f d6 8a 3b
       -0.00016257081 -0.0005810181 3.0720654e-05 0.0042369883
000040 97 de 73 ba 88 3d 0d bb d3 ff 50 3b 7d b7 82 ba
       -0.0009302883 -0.0021551568 0.0031890764 -0.0009972897
000050 cc f1 9b bb 6a 09 0f 39 d6 51 98 39 35 37 1f ba
       -0.004759049 0.0001364105 0.00029052672 -0.0006073595
000060 85 5e 80 b7 f9 5b 9c bb f4 6e 92 3a 06 e1 db bb
       -1.5302803e-05 -0.004771706 0.0011171983 -0.0067101745
000070 1b 54 c3 3a a7 5f 38 ba 50 ca 79 ba b2 7a 1c 3a
       0.0014902385 -0.0007033296 -0.0009528743 0.0005969211
000080 ac e3 2a b9 63 89 37 bb 4f 0b fe b9 1a b3 1e 3a
       -0.00016297278 -0.0028005473 -0.0004845508 0.000605391
000090 72 1d 79 3b 49 c5 6c 39 8a 3e 8d ba 6c 8d 6a b9
       0.0038011936 0.00022580208 -0.0010776084 -0.00022368663
0000a0 55 e0 db b3 c9 0e 4d 39 79 1d b8 3b 39 8d 22 ba
       -1.0238788e-07 0.00019555831 0.005618748 -0.00062008534
0000b0 ef d3 99 bb f7 29 2e 3c cb d7 09 ba c1 91 23 b8
       -0.004694454 0.010630122 -0.0005258291 -3.8997972e-05
0000c0 c4 e1 6f ba b4 db 96 ba 9c 65 a2 38 d5 52 94 ba
       -0.0009150768 -0.0011509568 7.743688e-05 -0.001131619
0000d0 9d 48 c5 3a 38 12 cc ba 79 17 42 39 b7 6b 17 bb
       0.0015051548 -0.0015569394 0.00018510026 -0.0023104975
0000e0 c7 f3 86 ba 29 29 8f 3b 84 6c 47 bb e5 5d 2e b7
       -0.001029604 0.0043689203 -0.003042967 -1.039307e-05
0000f0 f4 4f 4e 3a a5 cf 28 ba f4 eb e1 3a 86 94 ed 39
       0.00078701903 -0.0006439633 0.0017236457 0.0004531482
000100 c3 17 41 3d 8c f3 ac 3d f3 91 be 3d 36 fc ef 38
       0.0471418 0.084448904 0.09305181 0.00011443386
000110 1e 32 61 3d 3d ee 80 3d 2f 96 f1 bc 62 89 3b bd
       0.054979436 0.0629544 -0.029490558 -0.045785315
000120 c4 5d 84 bd e0 20 31 bd a1 2d 93 bd a3 1c f9 bb
       -0.06463197 -0.043244243 -0.071864374 -0.0076022907
000130 97 ae 9f bc 24 21 97 bc 9a 27 32 3c 50 c1 71 3d
       -0.01949243 -0.01844842 0.0108737 0.059022248
000140 a3 25 5e 3c c4 7a 59 bc 62 c0 3e bd 97 14 c8 3d
       0.013558778 -0.0132738985 -0.04657019 0.09769552
000150 32 96 0a 3d a4 86 46 bd 55 ab 2a bd 4a be 4c 3d
       0.033834644 -0.048468247 -0.0416673 0.04998616
000160 07 6a 1f bd 45 a5 93 bd f9 29 79 3d d0 09 90 bd
       -0.038919475 -0.07209257 0.060831044 -0.070331216
000170 0f 49 36 bd a0 58 21 bb c3 c6 b3 bc 12 7d 58 bd
       -0.044503268 -0.0024619475 -0.021945363 -0.05285365
000180 9f d6 86 3d 75 b7 8f bb d3 59 f9 bc dc 20 84 3d
       0.065839045 -0.0043858835 -0.03043834 0.0645158
000190 bb 5c e2 bc f3 e9 1b 3d ef 19 30 bd ac dc 6b bc
       -0.027632108 0.03806491 -0.042993482 -0.014395874
0001a0 4a 39 b1 3c ed 70 a2 bb 31 75 80 3d 6d ca b5 bc
       0.021633763 -0.0049573095 0.062723525 -0.02219125
0001b0 7c 37 51 3a cc 89 57 3c cc 2d cd 3c a0 e5 10 bd
       0.0007980985 0.013155412 0.025046252 -0.035375237
0001c0 64 72 fa 3c 53 dd 01 be 31 f1 42 3d e2 46 e8 3c
       0.030572124 -0.12682085 0.0475933 0.028354112
0001d0 92 b8 9b 3d 55 07 e6 bd 98 01 57 bd 93 f8 8d bc
       0.07603563 -0.11231867 -0.052491754 -0.017330443
0001e0 85 39 82 3d d5 57 f4 3c 61 ab b9 bb 41 06 a1 bb
       0.06358627 0.029827038 -0.005666182 -0.0049140756
0001f0 c8 a9 f1 3c a7 18 47 bd 9c ea 91 3c cd 10 1b 3d
       0.029499903 -0.048607495 0.017812066 0.03785782
000200 78 4c b7 ba dd 8d 2b 3a e1 b0 60 3a b3 29 7b b5
       -0.0013984581 0.00065442716 0.0008571279 -9.3565467e-07
000210 33 b1 bb ba 6a e1 b7 3a 18 90 e9 b9 24 56 19 3a
       -0.0014319777 0.0014028971 -0.0004454858 0.0005849323
000220 6d 7c 06 ba 2b 3a 82 39 0c c6 34 3a 52 dc ed 3a
       -0.0005130235 0.0002483887 0.00068959664 0.0018147326
000230 bb dc db b8 ec 9f de ba a5 88 3d b9 16 b1 2f 3b
       -0.00010483848 -0.0016984916 -0.00018075349 0.0026808432
000240 63 96 1b ba 0a 78 9b 3a 07 ff 11 3b 46 64 90 3a
       -0.000593519 0.0011861336 0.0022277252 0.0011016212
000250 24 8e f3 39 5b f9 16 b9 37 68 8a ba 49 c1 95 ba
       0.00046454475 -0.00014398007 -0.0010559623 -0.0011425401
000260 94 b5 28 ba b1 2c 7b 3b da ce 99 3a 76 82 3b bc
       -0.00064357487 0.0038326199 0.001173462 -0.0114446785
000270 88 71 22 b8 7a af 6e ba 8f 0a 48 b9 1c bd 08 39
       -3.8729544e-05 -0.00091051275 -0.0001907742 0.0001304042
000280 2d 76 6b 39 e1 0a c7 39 39 10 97 3a ca 45 59 3b
       0.0002245537 0.00037964343 0.001152522 0.003315317
000290 f9 e2 b9 3a cf 65 7a b9 a0 bf 4f ba 2e 9b 73 3a
       0.0014182023 -0.00023879785 -0.00079249777 0.0009292838
0002a0 2b 33 70 38 46 76 e6 b9 f8 97 19 3b 85 90 61 b9
       5.7268113e-05 -0.0004395714 0.0023436528 -0.0002151151
0002b0 2f 52 5b ba 0d ca b1 ba 34 b4 5d 3a 20 89 20 ba
       -0.00083664333 -0.0013564244 0.00084573333 -0.0006123949
0002c0 01 28 9e 38 34 dd 86 ba 52 f1 7d 38 20 67 46 ba
       7.5414784e-05 -0.0010289312 6.0544648e-05 -0.00075684674
0002d0 49 7b 99 b9 04 92 93 bb ac 98 13 3a fe 2d a3 ba
       -0.0002927429 -0.0045034904 0.0005630355 -0.001244962
0002e0 29 c6 13 39 b2 15 96 3a 9d 4b 9c ba bf 2b 7b 39
       0.00014092833 0.0011450558 -0.001192439 0.00023953522
0002f0 93 2e 3b 39 a4 57 fc 38 d6 41 97 38 f8 b6 4d 39
       0.0001785106 0.00012032621 7.212504e-05 0.00019618485
000300 2a a3 b2 3d 7f d8 db 3d d6 31 37 3e 95 63 b4 3d
       0.08722527 0.10734653 0.17890105 0.08808056
000310 d6 52 70 3c 21 c1 38 3d 9c a2 9f 38 6a 65 95 bd
       0.014668187 0.045106057 7.611999e-05 -0.07294734
000320 c3 82 80 bd 5a 40 f7 bd b7 97 0b be 6a a6 04 bd
       -0.06274941 -0.12072821 -0.13632093 -0.032385267
000330 f4 b6 39 3d c8 57 5e 3d f7 af 7a 3b 34 7b ab 3d
       0.045340493 0.054282933 0.0038251856 0.083731085
000340 86 db ea bc eb 6d 8d bd df e5 a2 bd de 2d 1c 3e
       -0.02866913 -0.06905731 -0.07954001 0.15251872
000350 94 5b 3e 3d 41 a0 10 be 07 c1 19 bc 3d 5a da 3d
       0.046474054 -0.14123632 -0.0093844 0.10661743
000360 e1 b3 c6 bd 3e 30 cd bd 20 ac 05 3d ad c7 a8 3c
       -0.09702278 -0.10018967 0.032634854 0.020603025
000370 a4 91 dd bd f7 af c6 3c 87 36 d1 3c bb 83 ed bd
       -0.10818794 0.024253828 0.025538696 -0.11597391
000380 b4 2a 02 3e e6 5f c8 3c b7 2b c8 bd b6 02 cf 3d
       0.12711602 0.02445979 -0.09773963 0.10107939
000390 0c 17 bf bd e3 e5 e9 3d 4b 76 c0 bd c2 f0 fc bd
       -0.09330568 0.114208005 -0.093975626 -0.123506084
0003a0 a8 5a 3e ba ea c0 29 bb c7 15 ab 3c 3b 3e 0b 3c
       -0.00072614336 -0.002590234 0.020884408 0.008498724
0003b0 86 fa 26 3d b8 72 39 bd 83 52 ad 3c 56 7f b4 bd
       0.04076626 -0.04527542 0.021157509 -0.0881335
0003c0 bf 99 66 3d 39 a5 f2 bd 93 b3 6f bc 71 41 21 3d
       0.056298967 -0.1184792 -0.014630216 0.03936905
0003d0 46 59 83 bc e0 3a 8b bc 49 fd db bd 86 5f a3 3d
       -0.01603378 -0.016995847 -0.1074167 0.07977204
0003e0 51 0c 1c 3e 24 54 97 bc 1d e3 41 bd 36 e3 be bc
       0.15239073 -0.018472739 -0.047335733 -0.023301702
0003f0 cb 95 30 bc bf b2 db bc 07 00 a3 3d d7 fe de 3d
       -0.010777901 -0.026818631 0.079589896 0.108884506

transformer.layers.0.linear1.bias f4 [128]
000000 39 09 57 bc 95 55 34 bd 6c 8e 59 bc 7c ba 8b bc
       -0.013124757 -0.04402693 -0.013278585 -0.017056696
000010 93 7a b8 bc 3f d6 62 bb b1 ce 9e bc 5d 34 a0 bb
       -0.022519385 -0.0034612564 -0.019385668 -0.0048890547
000020 e6 39 78 bc 61 30 5b bc a1 2b 41 bd 76 71 e3 bb
       -0.015150523 -0.013378234 -0.04716075 -0.006941016
000030 50 38 93 bd 59 d0 db 3c 2b a9 91 bc 89 c3 cb bc
       -0.07188475 0.026832746 -0.01778086 -0.024873512
000040 4b ff 81 bc 46 d2 88 bd 89 08 16 bd 28 75 df bc
       -0.015868803 -0.066807315 -0.036629234 -0.027277544
000050 18 c2 1f bd 24 07 25 bc 6f 78 c7 bc 58 c1 de 3c
       -0.03900346 -0.010072503 -0.02434942 0.027191803
000060 72 db 97 3d d9 67 75 bc 53 da ba 3c 14 7c b2 bc
       0.07414903 -0.0149783725 0.022809183 -0.02178768
000070 bf b1 03 3d ad 73 5a bd ba e8 10 bd 88 09 d7 bc
       0.032151934 -0.053332973 -0.035378195 -0.026249662
000080 20 c8 5a bc dd fe 49 ba a4 21 c0 bb 23 cd ef ba
       -0.013353378 -0.0007705519 -0.0058633853 -0.0018295388
000090 f7 8b 41 bc a1 ea 1f bc c6 c8 b4 bc 7d 50 b9 bb
       -0.011813155 -0.00976053 -0.022068392 -0.005655347
0000a0 46 90 b1 bb e3 2c ba bc 89 bc a6 bc 0c c8 90 bc
       -0.00541881 -0.022726482 -0.020353572 -0.017673515
0000b0 37 ed 71 bd 3a 82 32 bb 8e 8a a5 bb e9 71 83 3c
       -0.059064116 -0.0027238266 -0.0050519174 0.016045528
0000c0 1f 89 49 bc 3d 56 20 bd 40 3d bb bb 49 98 0e bd
       -0.012300759 -0.039144743 -0.0057140887 -0.0348132
0000d0 60 94 da bc df 4e 6b bc c7 44 34 3d f9 e7 62 bd
       -0.026682079 -0.014362066 0.044010904 -0.055397008
0000e0 cb 9e ec bb 0d 58 32 bc dd 22 9d bc 94 b9 f9 bb
       -0.007221078 -0.010885251 -0.019181663 -0.0076209996
0000f0 53 fb 21 ba 07 f3 1e bd 87 63 46 bd 0d 97 02 bd
       -0.0006179113 -0.038805988 -0.04843476 -0.031882335
000100 0e 43 d0 bb 0e e3 78 ba ea 08 a8 bb ad b3 91 ba
       -0.00635565 -0.0009494283 -0.0051280158 -0.001111617
000110 1a 29 97 bd 69 d5 09 bd 00 ce f1 bb 9b 00 0d bd
       -0.073808864 -0.03365079 -0.0073792934 -0.034424406
000120 e6 a8 82 bc c5 68 e3 b9 27 96 9d bc b3 4c 09 bc
       -0.015949678 -0.00043374873 -0.019236637 -0.008380103
000130 a9 6c 2a bb a6 b0 52 3a 21 75 74 bc 11 1e 37 bb
       -0.0026004708 0.0008037187 -0.014920504 -0.0027941505
000140 8a db d9 bb d8 d3 a6 bc 6b 79 44 bb 1f cd 10 3a
       -0.0066484855 -0.020364687 -0.0029979597 0.00055237295
000150 e3 ec b1 bb fa db 8a ba f8 7a 9d 3b 6e 5e 64 3b
       -0.0054298504 -0.0010594123 0.004805919 0.0034846324
000160 c2 0f 08 bd f2 ed d8 bb 37 f5 19 bc 22 f0 36 bc
       -0.033218153 -0.006620162 -0.009396843 -0.011165651
000170 11 21 f8 b7 64 05 25 bc 3e eb 59 3d b3 ee be bb
       -2.9579302e-05 -0.010072086 0.05320286 -0.005826795
000180 cb 6e 0c bb 34 12 25 ba 13 7d e1 bc 68 6d 88 bc
       -0.0021428342 -0.0006296963 -0.02752546 -0.016653731
000190 58 aa 9e b9 8c 9e a4 bc 21 33 91 ba 82 b6 15 bb
       -0.00030263024 -0.020095132 -0.001107786 -0.002284438
0001a0 ef 76 02 3d 4e f6 3f bc 44 57 e9 bd f4 e0 38 bd
       0.031851705 -0.011716438 -0.11393598 -0.045136407
0001b0 92 8c 00 bc 0f 4f 1f bb b1 e8 d6 bb 03 03 2f bd
       -0.007846015 -0.0024308597 -0.0065585007 -0.04272748
0001c0 bf 24 9a bc 32 ca 9e 3a b3 22 2d bc ce 81 c2 bb
       -0.01881635 0.0012114702 -0.010567355 -0.005935884
0001d0 00 fe 4e bb 13 24 66 3c a9 e8 a1 bc 1e 18 83 3c
       -0.0031584501 0.014046687 -0.019764261 0.01600271
0001e0 19 43 4e bd f8 20 80 bc bf ce ae bb be 13 8f bb
       -0.050356958 -0.01564072 -0.0053347046 -0.004366367
0001f0 f8 fc 00 bc 3c cd 5a bb 6e 9b 98 3d cf b6 55 bd
       -0.007872812 -0.003338649 0.07451521 -0.052176293
